Assets/Neural/shapeClassConvNado.onnx (onnx, 374573 bytes, 10 tensors)

dense_1/kernel:0 f4 [64, 7]
0	0x3df1c615	0.11805359
1	0xbf530381	-0.8242722
2	0xbf000bfc	-0.50018287
3	0x3d10a59e	0.035314195
4	0x3e9969a5	0.29963413
5	0xbe3cc669	-0.18435062
6	0x3ec1ad65	0.37827602
7	0x3eb4530b	0.35219607
8	0xbe0633ae	-0.13105652
9	0xbed2bf96	-0.41161793
10	0xbed1c357	-0.40969345
11	0x3e5b02d1	0.21387793
12	0xbe82b76e	-0.2553057
13	0x3e26a0bf	0.16272257
14	0x3d854611	0.06507505
15	0xbeb92ddc	-0.361678
16	0x3f063c61	0.5243588
17	0xbe83e39c	-0.2575959
18	0xbd52755b	-0.05138145
19	0x3e1dbd9d	0.15404363
20	0x3e314def	0.17314886
21	0xbee4b592	-0.44669777
22	0xbc5079cc	-0.012724351
23	0xbed3799d	-0.4130372
24	0x3e8ae058	0.27124286
25	0x3e677922	0.22604802
26	0xbe905edf	-0.2819738
27	0x3eae1305	0.33998886
28	0xbefaf101	-0.49011996
29	0x3dce1673	0.100628756
30	0xbe111382	-0.14167598
31	0xbdfef519	-0.124490924
32	0xbe867c47	-0.2626669
33	0x3e3de073	0.18542652
34	0xbe06bed3	-0.13158731
35	0x3e961274	0.29310954
36	0x3d563ad8	0.05230221
37	0x3eb44f93	0.3521696
38	0xbda1d276	-0.0790147
39	0xbf0f0e81	-0.55881506
40	0xbf1208e5	-0.5704482
41	0xbefe2742	-0.49639326
42	0x3d23eeb1	0.040022556
43	0xbebc437e	-0.36770242
44	0x3e6840c8	0.22680962
45	0xbe4d60d3	-0.20056467
46	0x3e5e8b59	0.21732844
47	0xbed24487	-0.41067907
48	0xbec01960	-0.3751936
49	0x3e675db8	0.22594345
50	0xbee5a2ee	-0.44850868
51	0xbf0c5c82	-0.54828656
52	0xbd62ac00	-0.055339813
53	0xbf279141	-0.65456015
54	0x3e77dc29	0.24205078
55	0xbef86fe8	-0.48522878
56	0xbe309703	-0.17245106
57	0x3e088455	0.1333173
58	0x3e3e6937	0.18594824
59	0xbf1cb785	-0.6121753
60	0xbead5dcc	-0.33860624
61	0xbe099308	-0.13434994
62	0x3e9bf3b1	0.3045936
63	0xbed4d52d	-0.4156889
64	0xbe8bba7d	-0.27290717
65	0x3e905ff7	0.28198215
66	0xbf2d82ad	-0.6777752
67	0xbebda6fa	-0.37041456
68	0x3d26945a	0.040668823
69	0xbe9b7fed	-0.30371037
70	0x3d878410	0.06616986
71	0xbdbb8831	-0.09156836
72	0xbe0c761a	-0.13716927
73	0xbda75422	-0.08170344
74	0x3e671eab	0.22570293
75	0x3d3dab74	0.04630609
76	0x3c125b54	0.008932907
77	0xbf34c8a4	-0.70618653
78	0x3d6f9a4b	0.058496755
79	0xbf16fe42	-0.58981717
80	0xbed3cf29	-0.41368988
81	0xbece01ed	-0.40235844
82	0x3ee72ffa	0.4515379
83	0xbed3a044	-0.4133321
84	0xbe52264e	-0.20522425
85	0xbecfee58	-0.4061153
86	0x3ec2ff9e	0.38085645
87	0xbee331a5	-0.44373813
88	0xbdbaff48	-0.09130722
89	0xbf22b7d3	-0.63561743
90	0x3a990392	0.0011674038
91	0xbdb3ec12	-0.08785261
92	0xbefe46ad	-0.49663296
93	0xbec580af	-0.3857474
94	0x3df797d4	0.12089506
95	0x3d4fac3c	0.050701365
96	0xbd08b5ee	-0.033376627
97	0x3e2a2a13	0.16617613
98	0xbe489c9f	-0.19590996
99	0x3e63400d	0.22192402
100	0xbe01a3c8	-0.12660134
101	0xbe432fd7	-0.19061218
102	0x3e8c3362	0.27382952
103	0xbde62cfb	-0.11239048
104	0x3e49621a	0.19666329
105	0xbefa9b0f	-0.48946425
106	0xbf11690a	-0.568009
107	0x3c992ace	0.018697169
108	0xbc5cf06b	-0.0134850545
109	0x3d32bc1f	0.043636438
110	0x3e93073d	0.2871646
111	0x3d8dd935	0.069261946
112	0xbeb0a2a2	-0.3449908
113	0x3df94257	0.121708564
114	0xbdb50a80	-0.08839893
115	0xbd0cc6e0	-0.03436935
116	0xbd8e3d72	-0.069453135
117	0xbdef9c3c	-0.11699721
118	0xbf427465	-0.75958854
119	0xbc58d45d	-0.013234225
120	0x3f34dc0a	0.7064825
121	0xbf4801e9	-0.78127915
122	0xbe2cfe39	-0.16893853
123	0xbea18791	-0.3154874
124	0xbf02aac7	-0.51041836
125	0xbe36bce4	-0.17845494
126	0xbec88758	-0.3916576
127	0xbe0d2a0f	-0.13785575
128	0xbe8fea6c	-0.28108537
129	0xbe3e4ff6	-0.1858519
130	0x3e3f50d2	0.18683174
131	0x3e69139a	0.22761384
132	0xbf1875ee	-0.59554946
133	0x3e9d5afc	0.30733478
134	0xbe4d76af	-0.20064805
135	0xbe9e9611	-0.30973867
136	0xbf1eefb7	-0.62084526
137	0xbe90f761	-0.28313735
138	0xbdf859b5	-0.12126485
139	0xbe76e2e9	-0.24109997
140	0xbf6a10d6	-0.9143194
141	0xbecc0182	-0.398449
142	0x3eda92f4	0.4269024
143	0xbf2a4f3c	-0.6652715
144	0xbec0bbc3	-0.3764325
145	0xbe1f5536	-0.15559849
146	0x3e6524a1	0.22377254
147	0x3f205a1c	0.62637496
148	0xbeed85a3	-0.4639102
149	0xbda8a214	-0.08234039
150	0xbf09842e	-0.53717315
151	0xbd827256	-0.06369464
152	0xbef58bca	-0.47958213
153	0xbe870bae	-0.26376098
154	0xbec8b7ae	-0.39202636
155	0xbf0e16ad	-0.5550335
156	0x3e2ddda4	0.1697908
157	0xbeb9b379	-0.3626974
158	0x3ec12097	0.37720177
159	0xbea63eb4	-0.32469714
160	0xbe4b8267	-0.19873963
161	0xbed98914	-0.42487395
162	0xbea75516	-0.32682103
163	0xbe9e5fdd	-0.30932513
164	0x3ea8a2cf	0.32936713
165	0x3eb5a328	0.3547604
166	0xbe11d186	-0.14240083
167	0xbf2a2792	-0.6646663
168	0x3e33ff47	0.1757785
169	0x3e5d585b	0.21615736
170	0x3e7790e6	0.24176368
171	0xbf009280	-0.5022354
172	0x3dcba12a	0.09942849
173	0x3c5e3e8b	0.013564716
174	0xbd801877	-0.06254666
175	0x3e3dae31	0.1852348
176	0xbf287651	-0.65805537
177	0x3eaab2af	0.3333945
178	0x3e6bf356	0.23042044
179	0xbe6cd1d9	-0.23126926
180	0xbef34ae7	-0.47518083
181	0xbf230ded	-0.63693124
182	0xbef31f13	-0.47484645
183	0x3e051132	0.1299484
184	0x3e1906e5	0.14944036
185	0xbd7f82c6	-0.062380575
186	0x3e676a12	0.22599056
187	0x3e0dfad9	0.13865222
188	0xbe5f39e6	-0.2179943
189	0x3e85b90a	0.26117736
190	0x3e7b7379	0.24555768
191	0xbebe21b4	-0.37135088
192	0xbe1bb7e7	-0.15206872
193	0x3e400cdd	0.18754907
194	0xbec37227	-0.3817303
195	0xbf286dc6	-0.657925
196	0xbeb77721	-0.35833076
197	0xbe73c9ff	-0.23807524
198	0xbf1bb926	-0.6082939
199	0x3e150bb4	0.14555246
200	0xbe6f163c	-0.23348325
201	0x3dbc9be0	0.09209418
202	0xbeb0dbdd	-0.34542742
203	0x3e8fdf33	0.28099975
204	0x3e98ff0b	0.29882082
205	0xbe9bf16d	-0.3045763
206	0xbeb476b0	-0.352468
207	0x3dc6a8f9	0.09700198
208	0x3de251f5	0.11050788
209	0x3e90af36	0.28258675
210	0x3a72bf31	0.0009260057
211	0xbeeb2380	-0.45925522
212	0x3e1ee0e8	0.15515482
213	0xbe2221dc	-0.15833229
214	0x3eab4acb	0.334555
215	0x3dffbbcd	0.12486992
216	0xbf043b6c	-0.5165317
217	0x3e64b3f8	0.22334278
218	0x3ce1b69b	0.027552893
219	0xbefd0380	-0.49416733
220	0xbe17fd44	-0.14842707
221	0x3f001913	0.5003826
222	0x3e6fede0	0.23430586
223	0x3e0dc348	0.13844025
224	0x3e36489d	0.17801137
225	0x3e7381ca	0.2377998
226	0xbe059339	-0.13044442
227	0xbc9d8246	-0.019227158
228	0x3d160d8a	0.036634006
229	0xbf0ff51e	-0.56233394
230	0xbf1cba12	-0.6122142
231	0xbefd3a31	-0.4945846
232	0xbe500499	-0.20314254
233	0x3e21eecf	0.15813754
234	0xbef9863f	-0.48735234
235	0xbe0edd38	-0.13951576
236	0xbd0c3615	-0.034231264
237	0x3ea84d03	0.32871255
238	0x3e73f70f	0.23824714
239	0xbd0e9581	-0.034810547
240	0xbf1e9cc6	-0.6195797
241	0x3e6069a0	0.21915293
242	0x3e570ae8	0.21000254
243	0x3eac139b	0.33608708
244	0x3d3b4872	0.045723386
245	0x3d6cb605	0.057790775
246	0x3ec081f5	0.3759915
247	0x3e474b8b	0.19462411
248	0x3e754a16	0.23954043
249	0xbe86dade	-0.26338857
250	0xbe877944	-0.26459706
251	0xbe6cb0ef	-0.2311437
252	0x3e45e069	0.19323887
253	0x3e15e853	0.14639406
254	0xbe90247c	-0.28152835
255	0x3e900054	0.2812525

dense_1/bias:0 f4 [7]
0	0x3e5448a4	0.20730835
1	0xbded666d	-0.11591802
2	0x3d51f1b3	0.051255893
3	0xbe1ce675	-0.15322287
4	0x3eb1a1a7	0.34693643
5	0xbe2231de	-0.15839335
6	0xbe75cef2	-0.24004725

dense/kernel:0 f4 [576, 64]
0	0xbdf0b028	-0.11752349
1	0xbe2fa741	-0.17153646
2	0xbe40ecd3	-0.18840341
3	0x3c2763e1	0.010216684
4	0x3db421d5	0.087955154
5	0x3e82b136	0.25525826
6	0x3e4d432f	0.2004516
7	0xbd9f8cdf	-0.07790541
8	0x3e301f20	0.17199373
9	0xbf052ae4	-0.5201857
10	0x3b897786	0.0041951565
11	0xbf02bfec	-0.510741
12	0x3d7e34b8	0.062061995
13	0x3dbbe24b	0.09174021
14	0xbd6a7ffa	-0.057250954
15	0x3db07329	0.08615715
16	0xbed2e127	-0.41187403
17	0xbe2f15a4	-0.17098099
18	0xbe7008d3	-0.23440866
19	0xbdee79c4	-0.11644319
20	0x3e6e32b3	0.23261528
21	0xbed11fd0	-0.40844584
22	0x3e393712	0.18087414
23	0x3d31e0cb	0.04342727
24	0xbdf43428	-0.119240105
25	0x3f2728ce	0.6529664
26	0x3e18bb35	0.14915164
27	0xbe800634	-0.25004733
28	0x3eaab970	0.33344603
29	0xbecddd78	-0.4020803
30	0x3ea0bd15	0.31394258
31	0xbea0037d	-0.3125266
32	0xbeab484b	-0.33453593
33	0x3e468efe	0.19390485
34	0xbd3c49c9	-0.045968805
35	0xbe06e404	-0.13172919
36	0x38f4ee20	0.00011679181
37	0x3eddb50c	0.4330219
38	0xbedfea64	-0.43733513
39	0xbe203fa2	-0.15649274
40	0xbe864331	-0.26223138
41	0x3d9a2ded	0.07528291
42	0x3cadae36	0.021201234
43	0x3d57c2fc	0.052676186
44	0xbe715ea5	-0.2357126
45	0xbee8f57b	-0.45499787
46	0x3ddf267e	0.10896014
47	0x3e3cd1ed	0.18439455
48	0xbe3e5efa	-0.18590918
49	0x3d63c8c3	0.055611383
50	0xbeae66be	-0.3406276
51	0xbd640e27	-0.05567756
52	0xbde2317a	-0.11044593
53	0x3ca824fd	0.02052545
54	0x3daf4056	0.08557193
55	0x3e483a1d	0.19553418
56	0x3d86438d	0.06555853
57	0xbe177520	-0.14790773
58	0x3ce187be	0.027530547
59	0xbe30937b	-0.1724376
60	0xbe221c55	-0.1583112
61	0xbd9db900	-0.077013016
62	0xbe5ec48a	-0.21754661
63	0x3e33b7d3	0.17550592
64	0xbe126817	-0.1429752
65	0xbf12b130	-0.57301617
66	0xbd1a8535	-0.037724692
67	0x3d016218	0.03158769
68	0x3e3f8602	0.18703464
69	0x3e560d91	0.20903613
70	0xbd9634bd	-0.07334278
71	0x3d422861	0.04740179
72	0x3c8d3261	0.017235937
73	0xbe69ed9a	-0.22844544
74	0x3cc1c980	0.023655653
75	0x3a76e498	0.00094182184
76	0xbd4a4ab9	-0.049387667
77	0xbeb4d99a	-0.35322267
78	0x3c986b9b	0.018605998
79	0xbcbe0567	-0.023195935
80	0xbb8237d6	-0.0039739413
81	0xbea21931	-0.31659845
82	0x3e47568d	0.1946661
83	0xbebb8688	-0.36626077
84	0x3e499e54	0.19689304
85	0xbf3ba979	-0.7330547
86	0x3d6ac343	0.057315122
87	0x3e0bccbd	0.1365232
88	0xbece32f0	-0.40273237
89	0x3d86ab61	0.06575657
90	0x3e715eff	0.23571394
91	0xbe946565	-0.28983608
92	0xbec092bb	-0.37611946
93	0xbd346ba1	-0.044047955
94	0xbd6111b7	-0.054948535
95	0xbf1a4053	-0.602544
96	0xbe03e3c4	-0.12879854
97	0xbdab7bce	-0.08373223
98	0xbe977242	-0.2957936
99	0xbe1e5731	-0.15462948
100	0xbe9bd19d	-0.3043336
101	0x3e483779	0.19552411
102	0x3e4b454d	0.19850655
103	0x3df5b14d	0.11996708
104	0x3d848a25	0.064716615
105	0xbe1cb37d	-0.15302844
106	0x3e474ef8	0.19463718
107	0xbdf1d6ae	-0.11808525
108	0x3eb7c618	0.3589332
109	0x3e69d697	0.22835766
110	0x3e78a789	0.2428266
111	0x3cbb6872	0.022876952
112	0x3e9e50cb	0.30921015
113	0xbf0c6935	-0.54848033
114	0xbef9ca9f	-0.487874
115	0x3d5a5135	0.0533001
116	0xbe0f6792	-0.14004353
117	0xbe97b062	-0.29626757
118	0x3eef9f96	0.46801442
119	0xbd916685	-0.07099632
120	0xbe78db7c	-0.24302477
121	0xbe65ba81	-0.22434427
122	0x3eb0a00b	0.34497103
123	0x3b17c2e1	0.0023156928
124	0xbf264212	-0.64944565
125	0x3d871d1d	0.0659735
126	0x3e6dcd68	0.23222888
127	0xbdd329c9	-0.10310704
128	0xbbdb710f	-0.0066968272
129	0x3b9fa40c	0.004871851
130	0xbf12e534	-0.57380986
131	0x3e4371dd	0.19086404
132	0x3eb49105	0.3526689
133	0xbcde53df	-0.027139602
134	0xbdd67848	-0.104721606
135	0xbed73ee8	-0.4204018
136	0xbe88bf5c	-0.26708496
137	0xbe503e4d	-0.20336266
138	0xbc8a860c	-0.016909622
139	0x3f19ecd6	0.6012701
140	0x3e90f595	0.28312364
141	0xbb67882e	-0.0035328972
142	0xbe316bd9	-0.17326297
143	0x3e024a51	0.12723662
144	0xbe22b13f	-0.15887927
145	0xbe2b752d	-0.16743918
146	0x3e4d49a6	0.20047626
147	0xbd915105	-0.070955314
148	0x3dd0deec	0.10198769
149	0xbd16baee	-0.036799364
150	0x3dc08851	0.09401
151	0x3df32448	0.118721545
152	0xbe94ded4	-0.29076254
153	0x3d400fc8	0.04689005
154	0xbe1f942c	-0.15583867
155	0xbebacacd	-0.3648285
156	0x3e3322e9	0.17493786
157	0xbd5a4f38	-0.053298205
158	0xbcf8f5ad	-0.030390585
159	0xbd9320a5	-0.07183961
160	0x3de9418e	0.11389457
161	0x3e8056c0	0.25066185
162	0x39868b12	0.00025662087
163	0xbdefa72b	-0.11701807
164	0x3e4bfd59	0.19920863
165	0x3ec5df2a	0.38646823
166	0xbe2b1578	-0.16707408
167	0x3c512932	0.012766169
168	0x3d8f5f55	0.07000605
169	0x3d5069e4	0.050882235
170	0x3eb32998	0.3499267
171	0x3d27078d	0.040778685
172	0xbd62efed	-0.055404592
173	0x3e01168d	0.12606259
174	0x3e7557d3	0.23959284
175	0xbeac18a6	-0.33612555
176	0xbe99f10e	-0.30066723
177	0xbd9f4071	-0.07775963
178	0xbdce05b1	-0.10059679
179	0x3e39c5dd	0.18141885
180	0x3f08a3e7	0.53375095
181	0x3e281efb	0.16418068
182	0xbeab3312	-0.334374
183	0x3e92f6b1	0.28703836
184	0x3d93e0b8	0.07220596
185	0xbea1473b	-0.31499657
186	0x3e530d2b	0.20610492
187	0xbe87ea84	-0.2654611
188	0x3d527be1	0.05138767
189	0x3e09525e	0.13410327
190	0x3e4fc3b2	0.20289496
191	0x3c1da17e	0.009621022
192	0xbe9ecbee	-0.3101496
193	0xbe940bc6	-0.28915232
194	0xbe568024	-0.2094732
195	0x3eb594d5	0.35465112
196	0xbe8794d9	-0.2648075
197	0xbd677c4b	-0.05651502
198	0x3ceabbdd	0.028654033
199	0xbe0a548d	-0.13508816
200	0x3e03d91b	0.12875788
201	0xbe0fbee0	-0.14037657
202	0xbd66a915	-0.056313593
203	0x3d4c5dbe	0.049894087
204	0x3ee8adb3	0.45445022
205	0xbcba36a5	-0.022731135
206	0x3efae613	0.49003658
207	0xbe144601	-0.1447983
208	0xbeea5d34	-0.45774233
209	0xbdc71020	-0.097198725
210	0xbe34b5d1	-0.17647482
211	0x3d5db12f	0.054124054
212	0xbe9ce4ec	-0.30643404
213	0x3ea5c293	0.3237501
214	0xbc40f1d4	-0.011776406
215	0xbeb29588	-0.34879708
216	0x3ea7e680	0.32793045
217	0x3d261277	0.040544953
218	0xbcf17cee	-0.029478516
219	0xbeb1d78f	-0.3473477
220	0x3d234a74	0.039865926
221	0x3f154b92	0.58318436
222	0x3d12087b	0.03565262
223	0xbc820551	-0.015871676
224	0xbea39752	-0.31951386
225	0x3ec61170	0.3868518
226	0xbe22114e	-0.15826914
227	0x3e896d55	0.26841226
228	0x3e87af6f	0.26501033
229	0xbe7b1c0b	-0.24522416
230	0x3d4b703e	0.04966759
231	0xbe9882ca	-0.29787284
232	0x3e4b3e42	0.19847968
233	0xbd10a629	-0.035314713
234	0xbe281dc8	-0.1641761
235	0x3e12a169	0.14319386
236	0x3e604dce	0.2190468
237	0xbea91ad6	-0.33028287
238	0xbee95c3e	-0.45578188
239	0x3e3fa9dc	0.1871714
240	0xbdff997f	-0.12480449
241	0xbd551445	-0.052021284
242	0xbe9ab43a	-0.30215627
243	0x3eacac77	0.3372533
244	0xbe9c9ac0	-0.30586815
245	0x3cd81c21	0.0263806
246	0xbde2cea3	-0.11074569
247	0xbec4d305	-0.38442245
248	0xbc5239bc	-0.012831148
249	0xbe3fe72d	-0.1874053
250	0xbd68e7ef	-0.056861814
251	0xbe9cc00c	-0.3061527
252	0xbe6efc25	-0.23338373
253	0x3db0ad6b	0.08626827
254	0xbd9026b3	-0.07038631
255	0xbd9c5d6d	-0.07635007

dense/bias:0 f4 [64]
0	0xbe63f207	-0.22260295
1	0xbd9d8926	-0.076921746
2	0xbe74179b	-0.2383713
3	0xbdc77e56	-0.097408935
4	0xbea9368f	-0.33049437
5	0xbeb52850	-0.35382318
6	0x3e5a60f8	0.21326053
7	0xbdbdb468	-0.092629254
8	0xbe043a9b	-0.12912981
9	0xbeb66d68	-0.35630345
10	0xbdb63a2b	-0.088978134
11	0xbe36169c	-0.17782062
12	0x3d5bdf6b	0.053679865
13	0xbcff6184	-0.031174429
14	0x3e7e03e0	0.24806166
15	0xbc354212	-0.011063116
16	0x3e31ed27	0.17375623
17	0xbe984c62	-0.29745775
18	0xbe1e5f64	-0.15466076
19	0xbe7d0c87	-0.2471181
20	0xbeabc471	-0.3354831
21	0x3e92d1b1	0.28675607
22	0x3e392cfd	0.18083568
23	0x3e3b2b48	0.18278229
24	0x3e9fb9c4	0.31196415
25	0xbd1d2cf5	-0.038372952
26	0x3d8d1fa8	0.068908036
27	0xbe3f6d65	-0.18694074
28	0xbe206676	-0.15664086
29	0xbe06bf5c	-0.13158935
30	0x3e19989f	0.14999627
31	0x3b1509c0	0.0022741407
32	0x3e45db53	0.19321947
33	0xbe560e95	-0.20904
34	0xbd61d59a	-0.055135347
35	0xbe5f7ce1	-0.21824981
36	0xbe767864	-0.24069363
37	0xbe7fd173	-0.24982242
38	0xbe927c9d	-0.28610697
39	0xbe3893f5	-0.18025191
40	0xbe828051	-0.25488523
41	0xbd730bb6	-0.05933734
42	0xbec7d256	-0.3902766
43	0xbd8291c9	-0.063754626
44	0xbec55fef	-0.38549754
45	0xbb14b47c	-0.0022690585
46	0xbeb61390	-0.355618
47	0xbe967841	-0.2938862
48	0xbe8381b1	-0.25684884
49	0xbe25beea	-0.16186109
50	0xbda245f1	-0.079234965
51	0x3ce74391	0.02823046
52	0xbeb1b5d4	-0.34709036
53	0x3d8a55b0	0.06754625
54	0x3dcae547	0.099070124
55	0xbe8ab0db	-0.27088055
56	0xbe2850b9	-0.16437043
57	0xbd89c335	-0.06726686
58	0xbce5cfb2	-0.028053138
59	0xbe24b144	-0.16083246
60	0x3df3e686	0.11909203
61	0xbca13187	-0.019676937
62	0xbe263bdf	-0.16233777
63	0xbe785141	-0.24249746

conv2d_2/kernel:0 f4 [64, 64, 3, 3]
0	0x3e4d495f	0.2004752
1	0xbe244dd7	-0.16045319
2	0x3ec5e18e	0.38648647
3	0x3d922891	0.07136644
4	0xbd3c9987	-0.046044853
5	0x3df8548a	0.121254995
6	0x3e959b63	0.29220113
7	0x3d3b5e99	0.045744512
8	0x3eab5a98	0.33467555
9	0xbd357c1b	-0.04430781
10	0x3d7cd6ab	0.06172816
11	0x3d471c0c	0.048610732
12	0xbc22edbb	-0.009944375
13	0xbe9ae9bc	-0.3025645
14	0xbd26dd2f	-0.04073828
15	0xbe0dfbf0	-0.13865638
16	0xbe7cc457	-0.24684273
17	0xbdf9e607	-0.12202077
18	0xbe300461	-0.1718917
19	0xbea0075f	-0.31255624
20	0x3d345ef3	0.044035863
21	0x3d6ce68c	0.057837054
22	0xbd0552d6	-0.0325497
23	0x3eb8ffe2	0.36132723
24	0x3e60573b	0.21908276
25	0x3e56ae41	0.2096491
26	0x3d373fb5	0.04473849
27	0x3e4e4bb5	0.20146067
28	0x3d716b5a	0.05894027
29	0xbd254e8c	-0.04035811
30	0xba2de6c8	-0.00066338154
31	0x3d67c802	0.056587227
32	0xbe86dd9e	-0.26340955
33	0xbe1d3b24	-0.15354592
34	0xbed0b5c0	-0.40763664
35	0xbe7c02ea	-0.24610487
36	0xbd2eb065	-0.04264869
37	0x3cbef52e	0.02331027
38	0xbde4513d	-0.111483075
39	0xbe44efb8	-0.1923207
40	0x3dc410ea	0.095735386
41	0xbe8721cb	-0.2639297
42	0xbe636ac2	-0.22208694
43	0xbe22ab9d	-0.15885778
44	0xbde0ad67	-0.10970574
45	0x3d6fcbb5	0.05854388
46	0xbd9cf3e2	-0.076637045
47	0x3d7ca79b	0.06168328
48	0x3ebf10b5	0.37317434
49	0x3d1418e3	0.036156546
50	0xbedd769f	-0.43254563
51	0xbe07abfe	-0.13249204
52	0x3da32b25	0.079672135
53	0x3e5987de	0.21243235
54	0xbd9475b9	-0.07249016
55	0xbed0d226	-0.4078533
56	0x3e0eae79	0.13933744
57	0x3ef6cffe	0.4820556
58	0xbde783d4	-0.11304441
59	0xbd96c96d	-0.07362638
60	0xbdb02301	-0.086004265
61	0x3e94adc4	0.29038823
62	0xbec238e8	-0.3793404
63	0x3e1493cc	0.14509505
64	0x3d972e1f	0.07381844
65	0x3e83a8b7	0.25714657
66	0x3d205d7e	0.03915166
67	0x3e842c03	0.25814828
68	0x3ed8de10	0.4235692
69	0xbd584bd5	-0.052806694
70	0x3c9e9e62	0.019362632
71	0x3cb1599e	0.021649178
72	0x3e61194a	0.21982303
73	0xbd0a3286	-0.03373959
74	0x3e6e193f	0.23251818
75	0x3d90b2f1	0.0706538
76	0xbeb33d75	-0.35007825
77	0xbeea0a9c	-0.4571122
78	0xbe417d61	-0.18895485
79	0x3cecc13b	0.028900733
80	0x3d979c29	0.07402832
81	0xba626219	-0.00086358335
82	0xbd980255	-0.0742232
83	0xbdfe36af	-0.12412774
84	0x3d511402	0.05104447
85	0x3b8521c0	0.004062861
86	0x3de9947b	0.114052735
87	0xbe87f5a8	-0.26554608
88	0xbf1886e9	-0.59580857
89	0x3e07dac2	0.13267043
90	0x3f073759	0.5281883
91	0x3e55b18a	0.20868507
92	0xbc08c786	-0.008348351
93	0xbd9d280c	-0.07673654
94	0x3dea9e51	0.11455978
95	0x3e283f65	0.16430433
96	0x3bea292e	0.0071460223
97	0xbc18cea8	-0.009326614
98	0x3e843551	0.25821927
99	0x3ea09623	0.31364545
100	0xbebf5c31	-0.37375024
101	0x3e0f0393	0.13966207
102	0x3e5380a9	0.20654549
103	0xbdcf7910	-0.10130513
104	0xbddfd5ff	-0.109294884
105	0xbf3306b6	-0.69932115
106	0x3e37c355	0.17945607
107	0xbdd35454	-0.10318819
108	0x3e1f9298	0.15583265
109	0xbd676264	-0.056490317
110	0xbe202b3f	-0.15641497
111	0xbe27a01c	-0.1636967
112	0xbf0cac88	-0.5495076
113	0x3e8584ef	0.26077983
114	0xbe0be209	-0.13660444
115	0x3e37e042	0.17956641
116	0xbe9a89c9	-0.30183247
117	0xbd88ccf9	-0.066797204
118	0x3eb1cb09	0.34725216
119	0x3d88d446	0.06681113
120	0x3e32d730	0.174649
121	0xbdee2de9	-0.116298504
122	0xbdabdff7	-0.08392327
123	0x3d834a96	0.064107105
124	0xbd45d70c	-0.048300788
125	0xbe594d72	-0.2122095
126	0xbe9c0a72	-0.3047672
127	0xbe591250	-0.21198392
128	0xbe403db9	-0.18773545
129	0xbee15ec1	-0.44017604
130	0xbe82686f	-0.25470302
131	0xbecb0680	-0.39653397
132	0x3e671c79	0.22569455
133	0x3e4db1ac	0.20087308
134	0xbd90b158	-0.07065076
135	0x3da89536	0.08231585
136	0x3d80483d	0.06263778
137	0x3dadf98f	0.08494865
138	0xbe0c9247	-0.13727675
139	0xbd9fa94e	-0.07795964
140	0x3e5b5a39	0.21421136
141	0xbdbb6505	-0.09150127
142	0x3de31012	0.110870495
143	0x3d059b88	0.03261903
144	0xbd6bbb6e	-0.057551794
145	0xbe9b0adf	-0.3028173
146	0xbc329c14	-0.01090147
147	0x3e693f2c	0.22778004
148	0xbedd9cb0	-0.43283606
149	0xbe9f0c90	-0.31064272
150	0x3e57142f	0.21003793
151	0x3e30e7b8	0.17275894
152	0xbe716f5a	-0.23577634
153	0x3de82e2f	0.11336934
154	0xbcfe2327	-0.031022621
155	0xbea98cba	-0.33115178
156	0xbebd6b0a	-0.36995727
157	0xbf13cb98	-0.57732534
158	0xbcd37683	-0.025813347
159	0xbeb3e682	-0.351368
160	0xbf31e7f6	-0.6949457
161	0xbb8a5729	-0.004221816
162	0xbcd061b1	-0.025437208
163	0x3e33a638	0.17543876
164	0xbe389dfb	-0.18029015
165	0x3e9b67a4	0.3035251
166	0xbdf6cccb	-0.1205078
167	0x3e375a94	0.17905647
168	0xbd977eb4	-0.073972136
169	0xbe512798	-0.2042526
170	0x3e60442f	0.2190101
171	0xbd2ab836	-0.041679583
172	0x3c9375de	0.01800054
173	0xbedb1e0b	-0.42796358
174	0x3dd99439	0.10623974
175	0xbe6a326c	-0.22870797
176	0xbea25367	-0.31704256
177	0xbd8c76bb	-0.068585835
178	0x3dbe0706	0.09278683
179	0xbdb0eb23	-0.08638599
180	0xbe2d94e8	-0.16951334
181	0xbe13a295	-0.14417489
182	0x3e35e6ef	0.17763875
183	0x3ea85283	0.3287545
184	0xbda800c8	-0.08203274
185	0x3e3cb121	0.18426944
186	0x3e8e53db	0.27798352
187	0x3e9fcf80	0.31212997
188	0x3d4cb3e0	0.04997623
189	0xbe1cbe0a	-0.15306869
190	0x3d625b05	0.055262584
191	0xbeb9f54f	-0.36319968
192	0xbe5eee16	-0.2177051
193	0xbe31588a	-0.17318931
194	0xbc762321	-0.015023024
195	0xbf548278	-0.8301158
196	0xbeb3d48b	-0.35123095
197	0xbe950c02	-0.29110724
198	0xbc066754	-0.008203346
199	0x3e62c848	0.22146714
200	0x3f00254c	0.5005691
201	0xbd4fa11b	-0.05069075
202	0xbdc365cd	-0.09540901
203	0x3de4eb83	0.11177733
204	0x3e7c48d3	0.24637155
205	0x3b42bec2	0.0029715751
206	0xbdc41407	-0.095741324
207	0x3e29a54f	0.16566966
208	0xbe148c2c	-0.14506596
209	0x3d144764	0.036200896
210	0xbe492a51	-0.19645049
211	0xbdb09ee7	-0.08624058
212	0xbd2894dc	-0.04115759
213	0xbe754547	-0.23952208
214	0xbe20c5e6	-0.15700492
215	0x3e6e7a7a	0.23288909
216	0x3d9f4349	0.077765055
217	0xbeeebb8d	-0.46627465
218	0xbe514dc2	-0.20439819
219	0xbd256fb0	-0.040389717
220	0x3e9302ec	0.28713167
221	0xbe4b57d4	-0.19857723
222	0xbd1014e3	-0.03517617
223	0xbce2e888	-0.02769877
224	0xbe98996e	-0.29804558
225	0x3e4bed10	0.19914651
226	0xbdcb9f03	-0.099424385
227	0xbdf11935	-0.11772386
228	0x3f099cbe	0.53754795
229	0x3ea339f2	0.31880146
230	0xbe5c5c06	-0.21519479
231	0x3c458490	0.012055531
232	0x3d9eb2d4	0.077489525
233	0xbeb5ec1d	-0.35531703
234	0xbdb2cd3b	-0.08730551
235	0xbd2eca18	-0.0426732
236	0x3d5c8a27	0.05384269
237	0xbdf0441c	-0.11731741
238	0x3e1ec335	0.15504153
239	0xbe728503	-0.23683552
240	0x3e06e9e4	0.1317516
241	0xbec17c92	-0.37790352
242	0xbe730949	-0.23734011
243	0xbbfe1d7b	-0.007754979
244	0x3cadd95d	0.021221811
245	0xbd317c45	-0.043331403
246	0xbda10240	-0.07861757
247	0x3d613342	0.054980524
248	0xbd0e24ab	-0.034702938
249	0x3c8eb454	0.017419972
250	0x3d7ffdc7	0.06249788
251	0xbd5a1d6b	-0.05325071
252	0xbe145ba2	-0.1448808
253	0xbe64909e	-0.22320792
254	0x3da0ac9f	0.07845425
255	0x3d6663ef	0.056247648

conv2d_2/bias:0 f4 [64]
0	0xbde21d4b	-0.110407434
1	0xbd5a05ef	-0.053228315
2	0xbe45ea14	-0.19327575
3	0xbe36aa71	-0.17838456
4	0xbcb74c13	-0.022375142
5	0x3cda1a8a	0.026623983
6	0xbd07ae38	-0.033125132
7	0x3dcbddb0	0.09954393
8	0xbb41303a	-0.0029478208
9	0xbe0c2ecb	-0.13689725
10	0xbd5b987c	-0.053612217
11	0xbe2111e1	-0.15729477
12	0xbe0dcb89	-0.13847174
13	0xbe6eb7df	-0.23312329
14	0xbe2cf7cf	-0.16891406
15	0xbdd53d1f	-0.104120485
16	0xbdac5393	-0.08414378
17	0xbe07669e	-0.13222739
18	0xbe7f63da	-0.24940434
19	0xbdfa66c0	-0.12226629
20	0xbd8b46f7	-0.06800645
21	0xbe1ab051	-0.15106322
22	0xbe2a856c	-0.16652459
23	0x3da1fb54	0.07909265
24	0xbe0153cf	-0.12629627
25	0xbe899bb9	-0.2687662
26	0xbd0637ba	-0.03276799
27	0xbeb24fc9	-0.34826496
28	0xbe3d6c87	-0.18498431
29	0xbd0ba675	-0.034094293
30	0x3ce6ce0c	0.028174423
31	0xbdd304d0	-0.10303652
32	0xbe98fd87	-0.29880926
33	0xbd915925	-0.07097081
34	0xbe00b810	-0.12570214
35	0xbd748d96	-0.05970534
36	0xbc661827	-0.014043844
37	0x3e09164b	0.1338741
38	0xbe815627	-0.25261042
39	0xbd998ec8	-0.074979365
40	0xbe8bba59	-0.2729061
41	0xbdb856d5	-0.09000937
42	0xbe81fbb0	-0.25387335
43	0x3d2dbb25	0.042414803
44	0x3cf5a5f0	0.029986352
45	0xbe6a54b0	-0.22883868
46	0xbe5ae376	-0.21375832
47	0x3e93ab1f	0.28841493
48	0x3ea83210	0.32850695
49	0xbd9634b1	-0.07334269
50	0xbb4478b7	-0.0029979178
51	0xbe5c61d2	-0.2152169
52	0x3dca3066	0.098725125
53	0xbe2adb53	-0.16685228
54	0xbe7a614e	-0.24451181
55	0xbe1e3a24	-0.15451866
56	0xbe2c7d41	-0.16844656
57	0xbd9fea00	-0.07808304
58	0xbcb08148	-0.021546021
59	0xbbf2d263	-0.007410334
60	0xbe3ac630	-0.18239665
61	0xbdc05f92	-0.093932286
62	0xbe65a939	-0.22427835
63	0xbeb36696	-0.35039204

conv2d_1/kernel:0 f4 [64, 32, 3, 3]
0	0xbdef8438	-0.116951406
1	0x3dc0da75	0.09416667
2	0xbd812904	-0.06306651
3	0x3e1c0e8e	0.15239927
4	0x3e7e4b26	0.24833354
5	0x3e566e97	0.20940624
6	0x3dedfbca	0.116202906
7	0x3d646898	0.05576381
8	0xbf22fb40	-0.6366463
9	0x3e5feacd	0.21866913
10	0x3ecd7581	0.4012871
11	0x3d4761c0	0.048677206
12	0xbae0d8b2	-0.0017154424
13	0xbed3ec24	-0.41391098
14	0xbf04de0b	-0.5190131
15	0xbea9f3bd	-0.3319377
16	0xbdf27dba	-0.11840387
17	0xbd8cba86	-0.06871514
18	0x3df65522	0.120279565
19	0xbcebae17	-0.028769536
20	0x3e850f26	0.2598812
21	0xbd2cc261	-0.04217756
22	0xbcb44c05	-0.022008905
23	0xbe47655e	-0.19472262
24	0xbe0f857f	-0.14015768
25	0x3d5d4db4	0.05402918
26	0xbf10fc9e	-0.56635463
27	0x3dff8d98	0.12478179
28	0x3ce45f00	0.02787733
29	0xbcef3886	-0.029201757
30	0xbef6017e	-0.48048013
31	0xbe5dee3c	-0.2167291
32	0xbeb1c0ac	-0.3471731
33	0x3e8de77c	0.2771567
34	0x3ea3acc6	0.31967753
35	0x3e515ac1	0.20444776
36	0x3e0ffcbf	0.14061259
37	0x3dee4729	0.116346665
38	0x3e15270d	0.14565678
39	0xbd654141	-0.055970434
40	0xbe8b9cae	-0.27267975
41	0xbecf8980	-0.40534592
42	0xbed10b4c	-0.4082893
43	0x3d436cb8	0.047711104
44	0x3e1b158c	0.15144938
45	0xbe7eef59	-0.24895991
46	0x3e77bd28	0.24193251
47	0xbe8613b4	-0.26186907
48	0xbedf6883	-0.43634424
49	0x3dd22dec	0.10262665
50	0xbed82db5	-0.42222372
51	0xbe44c988	-0.19217503
52	0x3ec6f049	0.38855198
53	0xbe7145be	-0.23561761
54	0xbe5e1544	-0.216878
55	0xbedc8015	-0.4306647
56	0xbe4ce43a	-0.20008937
57	0xbe07d33c	-0.13264173
58	0xbe9da1b8	-0.30787444
59	0xbe5e6891	-0.21719576
60	0x3ed45a27	0.4147503
61	0x3ea22664	0.31669915
62	0xbd421910	-0.047387183
63	0xbe59b774	-0.21261388
64	0x3e6d6967	0.23184739
65	0xbe3872e1	-0.18012573
66	0xbf2fa3c9	-0.6860929
67	0x3e2d36be	0.16915414
68	0xbe91b8a0	-0.2846117
69	0xbe5ce145	-0.21570309
70	0x3e9222d5	0.285422
71	0xbde78d8a	-0.11306293
72	0xbe62bb05	-0.22141655
73	0xbe2e89fc	-0.17044824
74	0x3e405793	0.18783407
75	0xbd9b574a	-0.075850084
76	0xbb943437	-0.004522826
77	0xbf052188	-0.5200429
78	0x3d86a8a9	0.06575138
79	0x3dbcb218	0.09213656
80	0xbf1d3a1e	-0.61416805
81	0x3ebd2572	0.3694263
82	0x3e8f44c4	0.27982152
83	0xbe016d07	-0.12639247
84	0xbe9fa5b9	-0.31181124
85	0xbe13f26f	-0.1444795
86	0xbe63baac	-0.22239178
87	0xbeee23e8	-0.4651177
88	0xbea2b692	-0.31779915
89	0xbc06b2bb	-0.008221324
90	0x3d3cc0c4	0.046082273
91	0x3d946d46	0.07247405
92	0xbe0802a9	-0.13282265
93	0xbe849ad3	-0.25899372
94	0xbe0a6d59	-0.13518275
95	0xbeb51e1d	-0.35374537
96	0xbdbf9fed	-0.09356675
97	0xbe6dec9e	-0.23234794
98	0x3d785532	0.060628124
99	0xbd5039a2	-0.050836213
100	0x3e6211f3	0.2207716
101	0x3e43d73b	0.19125073
102	0xbf15aada	-0.58463824
103	0x3debffb5	0.115233816
104	0xbf45da18	-0.7728591
105	0x3e26c5fd	0.16286464
106	0x3e6cc203	0.23120885
107	0x3e0a42d9	0.13502063
108	0xbebc8a94	-0.36824477
109	0xbe71d879	-0.23617734
110	0xbdceaacc	-0.10091171
111	0x3e363f61	0.17797615
112	0x3d73286c	0.05936472
113	0xbea64a64	-0.3247863
114	0x3ea3cf2b	0.31993994
115	0x3e2b2327	0.16712628
116	0xbeb59c2e	-0.35470718
117	0x3e8c25e8	0.2737267
118	0x3e5c285f	0.21499775
119	0x3eaca0aa	0.33716327
120	0x3d8c899d	0.06862185
121	0x3d15fc52	0.036617585
122	0xbe2e9ebc	-0.1705274
123	0xbed7eff2	-0.4217525
124	0xbdd25e6b	-0.10271915
125	0xbf09c7fe	-0.5382079
126	0xbd56fe5d	-0.052488673
127	0xbce904ce	-0.028444674
128	0xbe5189bc	-0.20462698
129	0xbe496a69	-0.19669499
130	0x3d0e877e	0.034797184
131	0xbecea87d	-0.4036292
132	0x3d79f4af	0.061024364
133	0x3d8c6bba	0.06856485
134	0xbe8b3b6c	-0.27193773
135	0x3d197129	0.037461434
136	0xbf0518a6	-0.51990736
137	0x3d8c6cac	0.06856665
138	0xbe269091	-0.16266085
139	0xbe46811f	-0.19385193
140	0x3e8048ad	0.25055447
141	0xbe79adf4	-0.24382764
142	0x3d989e46	0.07452063
143	0xbc818ecb	-0.01581516
144	0xbe737434	-0.23774797
145	0xbd422718	-0.047400564
146	0x3dce69b2	0.100787535
147	0xbf580ad3	-0.84391516
148	0xbd0396b1	-0.032126132
149	0xbc21b31b	-0.009869362
150	0xbe1f79db	-0.15573828
151	0xbe8067e3	-0.2507926
152	0xbd3d416b	-0.046204966
153	0x3d0b95b8	0.03407833
154	0xbc2f7465	-0.010708903
155	0xbd40a320	-0.047030568
156	0xbe4ae2ac	-0.19813031
157	0xba09ea97	-0.0005261092
158	0xbde92872	-0.113846675
159	0xbdd751ff	-0.105136864
160	0x3e20fdc6	0.15721807
161	0xbecb77b3	-0.3973976
162	0xbd5500de	-0.05200278
163	0xbdea33fe	-0.11435698
164	0x3c99617e	0.018723246
165	0xbcc86426	-0.024461817
166	0xbe4df33c	-0.20112318
167	0xbb9fcd9c	-0.0048768055
168	0xbc422c7c	-0.011851426
169	0xbe2e76cc	-0.17037505
170	0xbe5cdc0b	-0.21568315
171	0x3dc58e20	0.09646249
172	0x3e3f1b8c	0.18662852
173	0x3e0e533d	0.1389894
174	0xbdef3d83	-0.11681654
175	0xbe043b6a	-0.1291329
176	0x3da89ff6	0.08233635
177	0x3d36832f	0.0445587
178	0xbde6f2b0	-0.11276758
179	0xbe83dd0c	-0.25754583
180	0x3ef84625	0.48491016
181	0x3e6f80fb	0.23389046
182	0x3ec7927d	0.3897895
183	0xbe161e93	-0.146601
184	0xbe0aeb24	-0.13566262
185	0xbebb1b10	-0.36544085
186	0x3cb904cc	0.022585295
187	0xbe4a9e76	-0.1978701
188	0xbef84e42	-0.48497206
189	0xbd9eaea9	-0.077481575
190	0x3c03b92c	0.008039754
191	0xbd959d46	-0.07305388
192	0xbeda5087	-0.42639562
193	0xbcbccea3	-0.02304775
194	0xbf146f10	-0.5798197
195	0x3e9ffeee	0.31249183
196	0x3e8e929d	0.27846232
197	0xbeb1b60e	-0.3470921
198	0xbe732147	-0.23743163
199	0xbd72bcda	-0.059262134
200	0xbe8a27d6	-0.26983517
201	0xbdccbeeb	-0.09997352
202	0xbd8ccdfc	-0.06875226
203	0xbf07115b	-0.5276086
204	0x3d0f325e	0.034960143
205	0x3b8f6237	0.004375722
206	0xbea45087	-0.32092687
207	0x3e94b630	0.29045248
208	0xbdaac81b	-0.08338948
209	0xbe48c9e7	-0.1960827
210	0xbebf8004	-0.37402356
211	0xbe8e708a	-0.27820235
212	0xbdac79d4	-0.08421674
213	0x3eec734e	0.4618172
214	0x3e8e986b	0.2785066
215	0x3e682420	0.2267003
216	0xbe416563	-0.18886332
217	0xbe0b8fdc	-0.13629097
218	0x3de7ff82	0.11328031
219	0xbecc3a04	-0.39888012
220	0xbdf67d51	-0.12035621
221	0x3e838292	0.25685555
222	0xbe164efd	-0.14678569
223	0x3d21fb51	0.039546315
224	0x3e4cc693	0.19997625
225	0x3b9cba61	0.0047829603
226	0xbe1f0b4f	-0.15531658
227	0xbe0c3d33	-0.1369522
228	0x3d557b9a	0.05211983
229	0xbd534514	-0.05157955
230	0xbe8e67af	-0.2781348
231	0x3eb49b9d	0.35274974
232	0xbb2404b0	-0.0025027208
233	0xbe7a2853	-0.24429445
234	0xbdfd3ec6	-0.12365489
235	0xbc0ec2b6	-0.008713415
236	0xbdaa9271	-0.08328713
237	0xbe385fae	-0.18005249
238	0xbde7a133	-0.11310043
239	0x3e3eee58	0.18645608
240	0x3d45cb24	0.048289433
241	0xbe4af941	-0.19821645
242	0x3e8d0bf3	0.2754818
243	0x3edb4755	0.4282786
244	0x3e6f5139	0.23370828
245	0xbe72d435	-0.23713763
246	0xbed82fea	-0.42224056
247	0xbe31d4df	-0.1736636
248	0xbf057186	-0.5212635
249	0xbee46bd4	-0.44613516
250	0xbdce5ff7	-0.100768976
251	0xbe4772b0	-0.19477344
252	0x3e942dd7	0.28941223
253	0x3ebdb9c3	0.37055787
254	0xbeb7aea9	-0.35875443
255	0xbdae7e9a	-0.08520241

conv2d_1/bias:0 f4 [64]
0	0xbd1b4250	-0.037905037
1	0xbe7b4343	-0.24537377
2	0xbeacd053	-0.3375269
3	0xbe1ee267	-0.15516053
4	0xbde59c3a	-0.112114385
5	0xbdec502f	-0.11538731
6	0x3c115e18	0.008872531
7	0xbd292186	-0.041291736
8	0x3dc60928	0.09669715
9	0xbe17699e	-0.14786384
10	0xbeafff95	-0.3437468
11	0xbd8bb0af	-0.06820809
12	0xbdef1243	-0.11673405
13	0xbe091dc3	-0.1339026
14	0xbda957c0	-0.0826869
15	0x3c72bab7	0.014815024
16	0xbe17f61e	-0.1483998
17	0x3d89f679	0.06736464
18	0xbddbf619	-0.10740299
19	0x3e2cb78d	0.16866894
20	0xbe197780	-0.14986992
21	0xbdf12e3d	-0.117763974
22	0xbe7dfce9	-0.24803509
23	0xbc9534cb	-0.01821365
24	0xbed798e3	-0.4210883
25	0xbe71f9d2	-0.23630455
26	0xbeab1f50	-0.33422327
27	0xbd4cb500	-0.049977303
28	0xbec6c5a6	-0.3882267
29	0xbd9a34d1	-0.07529605
30	0xbe83f96f	-0.2577624
31	0x3d83bdb3	0.06432667
32	0xbe359b18	-0.17734945
33	0xbd3e0410	-0.046390593
34	0xbe09aeac	-0.13445538
35	0xbe587c9c	-0.21141285
36	0xbd9d1ec4	-0.07671884
37	0xbec93745	-0.3929998
38	0xbe7bb4a0	-0.24580622
39	0xbde3a13f	-0.111147396
40	0xbea4a93c	-0.32160366
41	0xbe52fb6c	-0.20603722
42	0xbe042400	-0.12904358
43	0xbe3f3f83	-0.18676572
44	0xbd9f2a18	-0.077717006
45	0xbe5e3b0b	-0.2170221
46	0xbe94563a	-0.28972036
47	0x3b5bcbdd	0.003353826
48	0xbe172cc9	-0.14763178
49	0xbe8ae2d9	-0.27126196
50	0xbe2bcd57	-0.1677755
51	0xbea12010	-0.31469774
52	0x3d8a113f	0.06741571
53	0xbd34805c	-0.044067726
54	0xbe93cfdb	-0.2886952
55	0xbea0975c	-0.31365478
56	0xbea56c59	-0.32309225
57	0xbe4dc0f9	-0.20093144
58	0xbe100dcb	-0.14067762
59	0xbe1b4955	-0.15164693
60	0xbe66de98	-0.2254585
61	0xbe86cd1c	-0.2632836
62	0xbe533894	-0.20627052
63	0x3d2dc286	0.04242184

conv2d/kernel:0 f4 [32, 1, 3, 3]
0	0xbcb02310	-0.021501094
1	0x3d577908	0.05260566
2	0xbe24a670	-0.16079116
3	0xbe9ef51a	-0.31046373
4	0x3e9036a2	0.28166682
5	0xbeb68c88	-0.35654092
6	0xbe9e164c	-0.30876386
7	0x3efa54ee	0.4889292
8	0xbe98d023	-0.29846296
9	0xbeb37994	-0.35053694
10	0xbe890cbf	-0.26767537
11	0x3d881693	0.06644931
12	0x3e8e5c3e	0.2780475
13	0x3dbf525e	0.09341882
14	0x3cb1ccbb	0.021704068
15	0x3d45d7fb	0.04830168
16	0x3d919f30	0.07110441
17	0x3e344693	0.17605047
18	0xbe8384f6	-0.2568738
19	0x3d8a79ac	0.06761488
20	0x3e05d784	0.13070494
21	0xbea2970f	-0.31755874
22	0x3dec6a08	0.11543661
23	0x3e7daf86	0.24773988
24	0xbde1b27e	-0.11020373
25	0xbf1a8039	-0.603519
26	0xbcfb3bc5	-0.030668149
27	0xbc1bcafc	-0.009508844
28	0xbe02be0c	-0.1276781
29	0xbed0e412	-0.40799004
30	0xbdf127c5	-0.117751636
31	0xbd821528	-0.063516915
32	0x3cbda136	0.02314816
33	0x3e917f75	0.28417554
34	0x3e886bcf	0.2664475
35	0x3e618e6f	0.2202699
36	0xbcde1626	-0.02711017
37	0x3e0be301	0.13660814
38	0xbe298dd4	-0.1655801
39	0x3eac34eb	0.33634123
40	0x3e3fcec3	0.18731217
41	0x3dacb664	0.08433226
42	0xbec9e08c	-0.39429128
43	0xbeb47140	-0.35242653
44	0xbdf0f37c	-0.11765191
45	0x3d7250f9	0.059159253
46	0x3e189574	0.14900762
47	0xbd549d49	-0.05190781
48	0x3d56eef2	0.05247397
49	0x3dc9ecac	0.09859595
50	0xbe2191d4	-0.15778285
51	0xbc3f1efc	-0.011665102
52	0x3db65444	0.08902791
53	0xbe75ea30	-0.24015117
54	0x3d8131b2	0.06308307
55	0xbeab88ad	-0.33502713
56	0xbee888da	-0.4541691
57	0xbf2b882b	-0.6700465
58	0xbeb2cf51	-0.34923795
59	0x3e357e03	0.17723851
60	0xbe2b4a86	-0.16727647
61	0x3e6505d4	0.22365505
62	0x3eacae3e	0.33726686
63	0xbdd388cd	-0.10328827
64	0x3e851efe	0.26000208
65	0xbd8a177d	-0.06742761
66	0x3d0eac7f	0.034832474
67	0x3eb0f28b	0.34560046
68	0xbed8cb24	-0.42342484
69	0x3e82637f	0.25466534
70	0x3e25307c	0.16131777
71	0xbf03ab14	-0.5143292
72	0x3e687c30	0.22703624
73	0xbf0f9698	-0.5608916
74	0x3e8cbe4e	0.2748894
75	0xbddbfec7	-0.10741954
76	0xbeaf5b21	-0.34249213
77	0x3eaecdcb	0.34141383
78	0xbe8f82a5	-0.2802936
79	0x3e074bc1	0.13212492
80	0x3db62289	0.08893306
81	0xbd1acb23	-0.037791383
82	0xbe5ac7ad	-0.21365233
83	0xbe3e9127	-0.18610059
84	0x3e4b9243	0.19880013
85	0x3e9a4125	0.30127826
86	0xbd8c141c	-0.06839773
87	0xbe1f025f	-0.15528248
88	0x3e28faef	0.16501974
89	0x3e354f8b	0.17706124
90	0x3e0c3587	0.13692294
91	0xbccaa167	-0.024735166
92	0x3dac9282	0.08426382
93	0x3e24fea2	0.1611276
94	0x3d0c9e96	0.034330927
95	0xbc5e801d	-0.013580349
96	0x3de9935a	0.11405058
97	0x3e31cc6d	0.17363138
98	0x3d0d2868	0.034462363
99	0xbed5b4ed	-0.41739598
100	0xbe860c01	-0.26181033
101	0x3e4063e6	0.18788108
102	0x3e385ba3	0.18003707
103	0x3ed8cd19	0.42343977
104	0xbd80c8b9	-0.06288285
105	0xbbf378e7	-0.007430184
106	0xbd9f60d6	-0.07782142
107	0xbf0baad3	-0.5455753
108	0xbe5ddabd	-0.21665473
109	0xbe8e88a5	-0.27838627
110	0x3ccabf2e	0.024749365
111	0xbf342cd7	-0.7038092
112	0x3e3bf8be	0.18356606
113	0x3e489c26	0.19590816
114	0xbe853fcf	-0.26025245
115	0x3ec8d18e	0.39222378
116	0xbd450f86	-0.048110507
117	0x3e123e9a	0.14281693
118	0x3e81a31e	0.2531976
119	0x3e1753e3	0.14778094
120	0xbe812d27	-0.2522976
121	0x3e861459	0.261874
122	0x3d4c2cc5	0.049847383
123	0xbea28318	-0.31740642
124	0xbf06076a	-0.5235506
125	0xbd8b7fc1	-0.068114765
126	0x3c8a4a92	0.016881261
127	0x3dfdb94b	0.123888575
128	0xbd972943	-0.07380917
129	0xbf0badc9	-0.5456205
130	0x3e806e8b	0.25084338
131	0x3e972c0e	0.295258
132	0x3ce4606a	0.027878005
133	0xbed41f75	-0.4143025
134	0x3e56b540	0.20967579
135	0x3e913266	0.28358763
136	0xbe559162	-0.2085624
137	0xbd2ef61b	-0.042715173
138	0x3eb1ecf0	0.3475108
139	0xbe9d5c39	-0.30734423
140	0xbdb2ab91	-0.0872413
141	0x3e92cc79	0.28671625
142	0xbeb4c91a	-0.35309678
143	0xbd8970b3	-0.06710949
144	0xbed99745	-0.42498222
145	0xbf04b805	-0.5184329
146	0x3eb383a1	0.35061362
147	0x3d42a824	0.047523633
148	0xbe34da93	-0.17661504
149	0xbe30cc3c	-0.17265409
150	0x3ed84949	0.42243412
151	0x3e3756db	0.17904226
152	0xbf40cb62	-0.7531034
153	0x3da46f6a	0.08029063
154	0xbe24be9f	-0.16088341
155	0x3e1679ad	0.14694853
156	0xbe8cabda	-0.27474862
157	0x3d674a9a	0.05646763
158	0x3cbabc43	0.022794848
159	0x3dc9ba46	0.09849982
160	0xbc93b320	-0.01802975
161	0x3d24c6ab	0.040228527
162	0x3e7d12cf	0.24714206
163	0x3e3453e1	0.17610122
164	0xbed60b14	-0.41805327
165	0x3e4457d0	0.19174123
166	0xbf304cd3	-0.68867224
167	0xbe65f489	-0.22456564
168	0xbef5c27b	-0.4799994
169	0xbe100730	-0.14065242
170	0x3ea8f6e3	0.3300086
171	0xbcae2fa2	-0.021262947
172	0x3d895f7a	0.06707664
173	0x3d9cd1af	0.076571815
174	0x3db92529	0.09040291
175	0xbd8908ca	-0.066911295
176	0xbcc24899	-0.023716258
177	0x3d0e62e6	0.034762286
178	0xbe03ab9b	-0.12858431
179	0xbe06c209	-0.13159956
180	0x3e861937	0.26191112
181	0x3e4fc546	0.20290098
182	0x3e5acd42	0.21367362
183	0xbe1f96a1	-0.15584804
184	0xbefaf998	-0.4901855
185	0xbec6938c	-0.38784444
186	0xbe8e91ca	-0.27845603
187	0x3e901e7f	0.28148267
188	0x3e9f8427	0.31155512
189	0xbd815675	-0.063153185
190	0xbeae8aff	-0.3409042
191	0x3e0fee53	0.14055757
192	0xbeb8f382	-0.36123282
193	0x3e9ce340	0.30642128
194	0x3e8a3c69	0.26999214
195	0x3e98e6a7	0.29863474
196	0x3e648cc4	0.22319323
197	0xbebb6f8c	-0.3660854
198	0x3a0dd949	0.0005411101
199	0x3e14cbac	0.1453082
200	0xbe35c5fd	-0.17751308
201	0xbedee466	-0.4353363
202	0x3e7d59dd	0.24741311
203	0x3e479b0d	0.19492741
204	0x3c6eb668	0.014569856
205	0xbeb05546	-0.34440058
206	0x3e1de2a0	0.15418482
207	0x3d6e6103	0.058197986
208	0x3d003bc2	0.03130699
209	0x3ca978a5	0.02068741
210	0xbeb09da2	-0.34495264
211	0xbea97d71	-0.33103517
212	0xbe6ac558	-0.22926843
213	0x3e8fdb34	0.28096926
214	0x3e8dee5b	0.27720913
215	0x3e43af2d	0.19109793
216	0xbdf27ae1	-0.118398435
217	0xbe69f5f2	-0.22847727
218	0x3dc2495c	0.094866484
219	0xbdbd927a	-0.09256454
220	0xbeee0e4f	-0.46495292
221	0xbea17e16	-0.31541508
222	0x3ec84ca1	0.39120963
223	0x3e4eec30	0.20207286
224	0xbf09216b	-0.53566617
225	0xbe9593f6	-0.29214448
226	0x3e9c96c8	0.30583787
227	0xbc70b944	-0.014692608
228	0xbeb3a3c6	-0.35085887
229	0x3e88cee3	0.26720342
230	0xbe8506aa	-0.25981647
231	0xbe4c826a	-0.19971624
232	0x3e2a8b8c	0.16654795
233	0x3bc9a758	0.006153982
234	0xbe36971a	-0.17831078
235	0xbf2c9ad8	-0.6742377
236	0x3d8d4621	0.06898142
237	0x3ebc8711	0.36821797
238	0xbd0b4e96	-0.034010492
239	0xbf08dc99	-0.53461605
240	0x3ddb069e	0.106946215
241	0x3ea764c0	0.32694054
242	0xbe45f481	-0.19331552
243	0x3e956fec	0.29186952
244	0xbdadd216	-0.08487336
245	0xbf0607db	-0.52355736
246	0xbdfa63df	-0.1222608
247	0x3e845cff	0.258522
248	0x3e9e57e5	0.30926433
249	0xbc65fc17	-0.014037154
250	0xbc92e6fa	-0.017932404
251	0x3d497a94	0.049189165
252	0x3d8595ac	0.06522688
253	0xbe66f074	-0.22552663
254	0x3da095d6	0.07841079
255	0x3e2e1f78	0.17004192

conv2d/bias:0 f4 [32]
0	0xbc9080c2	-0.017639522
1	0xbea6c37c	-0.32571018
2	0xbdc732ec	-0.097265095
3	0xbe66e245	-0.22547252
4	0xbd72d2f0	-0.059283197
5	0xbea55db0	-0.3229804
6	0xbd0d3000	-0.034469604
7	0xbe109241	-0.14118291
8	0xbddbf804	-0.107406646
9	0xbe92185b	-0.28534207
10	0xbec06641	-0.37578014
11	0xbd2fe0ed	-0.042939115
12	0xbdace3a8	-0.084418595
13	0xbe223e20	-0.15844011
14	0xbdeea3e4	-0.116523534
15	0xbd5579f4	-0.052118257
16	0x3cf64c1f	0.030065594
17	0xbea97534	-0.3309723
18	0x3db928dc	0.090409964
19	0xbea305fe	-0.3184051
20	0xbe530f31	-0.20611264
21	0xbe87f54c	-0.26554334
22	0xbd4d3e44	-0.05010821
23	0xbded56df	-0.11588835
24	0xbd2970d3	-0.041367363
25	0xbd1dee4a	-0.03855733
26	0x3d87220b	0.0659829
27	0xbe8a039f	-0.26955888
28	0xbe81d856	-0.25360364
29	0x3d3d8f88	0.04627946
30	0xbec5208d	-0.38501397
31	0xbec1568a	-0.37761337
