Assets/Neural/shapeClassConv (1).onnx (onnx, 374573 bytes, 10 tensors)

dense_1/kernel:0 f4 [64, 7]
0	0xbf50465d	-0.81357366
1	0xbf0182af	-0.5059003
2	0xbe2f4577	-0.17116342
3	0xbf3ab47b	-0.7293164
4	0xbeaed545	-0.34147087
5	0xbf450248	-0.76956606
6	0xbf334e36	-0.70041215
7	0x3e215999	0.15756835
8	0x3da92f6a	0.08260997
9	0xbe2b9a7f	-0.16758154
10	0xbe82c650	-0.25541925
11	0xbc9c2812	-0.019062076
12	0xbe865248	-0.2623465
13	0x3daaa793	0.083327435
14	0xbe826fb8	-0.2547586
15	0xbebe9983	-0.37226495
16	0xbf117d21	-0.56831557
17	0xbf336d04	-0.7008822
18	0xbea5ff31	-0.32421258
19	0xbf25d65c	-0.6478021
20	0xbf2f2cdf	-0.6842784
21	0x3bc3f76d	0.005980423
22	0xbd2f021c	-0.04272662
23	0xbe819fd5	-0.25317255
24	0x3cad9bd7	0.021192474
25	0x3cacfae8	0.021115735
26	0xbeb3116f	-0.34974238
27	0xbe6e1948	-0.23251832
28	0xbdc6ef6d	-0.097136356
29	0x3d2cc79b	0.042182546
30	0xbc734e62	-0.014850231
31	0x3ca5497e	0.020176645
32	0xbedab13f	-0.42713353
33	0x3d3d3641	0.04619432
34	0xbe97514c	-0.29554212
35	0xbebc2bfb	-0.36752304
36	0xbe219d2d	-0.15782614
37	0xbf3245cb	-0.69637746
38	0xbda992f5	-0.08279983
39	0xbe63187d	-0.2217731
40	0xbde5e56f	-0.112254016
41	0xbf2401c3	-0.6406519
42	0xbf13edbe	-0.5778464
43	0xbe004b09	-0.12528624
44	0x3d81fe64	0.06347349
45	0xbefe634f	-0.4968514
46	0xbee19622	-0.44059855
47	0xbe36435c	-0.17799133
48	0xbd83d0c3	-0.064363025
49	0xbf04f945	-0.51942855
50	0xbd713dac	-0.058896706
51	0xbef2ad8c	-0.4739803
52	0xbefc36b1	-0.49260476
53	0xbf0782d8	-0.52934027
54	0xbeda31a7	-0.42616007
55	0xbf090a04	-0.5353091
56	0xbeaa96b6	-0.33318108
57	0xbe780872	-0.24221972
58	0xbf391f4a	-0.7231337
59	0xbbad2782	-0.0052842507
60	0xbece0bd6	-0.40243405
61	0xbe5ecfa7	-0.217589
62	0xbf0df0af	-0.5544538
63	0x3d403757	0.046927776
64	0xbe68646e	-0.22694561
65	0xbe4910a7	-0.19635259
66	0x3a9030eb	0.0011000907
67	0xbe85c64f	-0.2612786
68	0xbd841399	-0.064490505
69	0x3d91033b	0.07080694
70	0xbdff7723	-0.124738954
71	0xbf2c2a07	-0.6725163
72	0xbe6c91e9	-0.23102535
73	0xbf0f2350	-0.5591326
74	0xbf4b2877	-0.7935862
75	0xbf1fe403	-0.62457293
76	0xbf3482e9	-0.70512253
77	0xbe713826	-0.23556575
78	0xbed3e9a6	-0.41389197
79	0xbf2e1c3b	-0.68011826
80	0xbefd6da2	-0.49497706
81	0xbf3e3635	-0.74301463
82	0xbd9c716c	-0.07638821
83	0xbeda6b1a	-0.42659837
84	0xbe90b6cf	-0.28264472
85	0x3c0e978f	0.008703127
86	0x3ce38be0	0.027776659
87	0x3c9c6baa	0.019094307
88	0xbccc211f	-0.024918137
89	0xbe4cd099	-0.20001449
90	0xbe9503c2	-0.2910443
91	0xbf1a2ec0	-0.60227585
92	0xbe500722	-0.20315221
93	0xbf121f90	-0.5707941
94	0xbd1059b5	-0.0352418
95	0xbed6fba8	-0.41988873
96	0x3c991f37	0.018691642
97	0xbf0bb863	-0.54578227
98	0xbe05fcb9	-0.13084687
99	0xbe89429a	-0.26808625
100	0x3d5bb2a7	0.053637173
101	0x3dee1dac	0.11626753
102	0x3d74c1ea	0.059755243
103	0xbea2b73b	-0.3178042
104	0x3d59a216	0.053133093
105	0xbd740bf5	-0.059581716
106	0xbe800f67	-0.2501175
107	0xbea7ca10	-0.3277135
108	0xbeba9854	-0.36444342
109	0xbdee257f	-0.116282456
110	0x3d89ab4c	0.067221254
111	0xbea2ceee	-0.317985
112	0xbee0bd17	-0.43894264
113	0xbf26a8d2	-0.6510135
114	0xbf29d300	-0.66337585
115	0xbf135491	-0.57550913
116	0xbee84011	-0.4536138
117	0xbec68e8c	-0.3878063
118	0x3dc00294	0.09375492
119	0x3e413b91	0.18870379
120	0x3d517b4b	0.051142972
121	0x3ca9cf4b	0.020728728
122	0xbddcc5b4	-0.107798964
123	0xbe936bfb	-0.2879332
124	0xbed954a6	-0.42447394
125	0xbebcc8ab	-0.36871848
126	0xbf0f0847	-0.55872005
127	0xbea3fb85	-0.32027832
128	0xbf4afe30	-0.7929411
129	0xbece9b29	-0.40352753
130	0xbe437fbd	-0.19091697
131	0xbf5dbf8d	-0.8662041
132	0xbf5d0341	-0.8633309
133	0x3da3f9dc	0.08006641
134	0xbe60757e	-0.2191982
135	0xbd4355a6	-0.047689103
136	0xbea61e0a	-0.32444793
137	0xbe955cfd	-0.29172507
138	0xbca2f04b	-0.019889971
139	0x3e5135f9	0.20430745
140	0x3dff15ef	0.124553554
141	0x3e557e57	0.20848976
142	0xbe853cd9	-0.26022986
143	0x3c05e1be	0.008171497
144	0xbd144e94	-0.03620775
145	0x3de37dbb	0.111079656
146	0x3e1ac13e	0.15112779
147	0x3d5370bc	0.051621184
148	0xbe990759	-0.29888418
149	0xbcaaeb02	-0.020864014
150	0xbe11e956	-0.14249167
151	0x3ddbf483	0.10739996
152	0xbe4a62a9	-0.19764198
153	0xbeab7f7e	-0.33495706
154	0xbd6c23ae	-0.057651214
155	0xbed15f53	-0.4089304
156	0xbd826661	-0.063671835
157	0xbef3003f	-0.47461125
158	0xbeba13fd	-0.36343375
159	0xbe941226	-0.28920096
160	0xbd336aa7	-0.043802883
161	0xbf2209e7	-0.6329636
162	0xbef4c4e5	-0.4780647
163	0xbdc8bb58	-0.09801358
164	0x3da097cb	0.07841452
165	0xbed1cffe	-0.40978998
166	0xbd5cab05	-0.053874034
167	0xbeda343a	-0.4261797
168	0xbeec6572	-0.46171147
169	0xbe4725eb	-0.19448058
170	0xbe987756	-0.29778546
171	0xbecbf522	-0.3983546
172	0xbd974df1	-0.07387913
173	0xbe66f7f0	-0.22555518
174	0xbd332f02	-0.043746002
175	0xbeb832bc	-0.35976207
176	0x3d748c83	0.059704315
177	0x3e9581cd	0.29200593
178	0xbcb42d36	-0.021994215
179	0xbcbf51c0	-0.023354411
180	0xbe937542	-0.28800398
181	0xbeac6260	-0.33668804
182	0xbed233e7	-0.41055223
183	0xbe6f93b1	-0.23396184
184	0xbb492a83	-0.0030695505
185	0xbdcd011e	-0.10009979
186	0xbefa0880	-0.4883461
187	0xbe2b3c22	-0.16722158
188	0xbe0843b8	-0.13307083
189	0xbe847f74	-0.2587849
190	0xbd66b5fe	-0.056325905
191	0x3d86e539	0.065866895
192	0xbe9b4e47	-0.30333158
193	0xbcce95eb	-0.02521797
194	0xbd5f6f47	-0.05454948
195	0xbe96b7d9	-0.2943714
196	0xbef38ef9	-0.47570017
197	0x3d13d191	0.03608853
198	0xbf364e16	-0.712129
199	0xbdaa2c8a	-0.083092764
200	0xbe0da047	-0.13830672
201	0xbeaf977f	-0.3429527
202	0xbed56008	-0.4167483
203	0x3e630458	0.22169626
204	0x3e7e03e5	0.24806173
205	0xbe39dc4a	-0.1815044
206	0x3e70639b	0.23475496
207	0xbc54a7f1	-0.0129794935
208	0x3e0f5e35	0.14000781
209	0xbe8c01bc	-0.27345073
210	0xbf184e98	-0.59494925
211	0x3cfe80d1	0.031067284
212	0xbf093ff9	-0.5361324
213	0x3ddecaed	0.10878549
214	0x3db18d03	0.08669474
215	0xbe42534d	-0.18977089
216	0xbd96c5d8	-0.073619545
217	0xbe83e647	-0.25761625
218	0xbec6f197	-0.38856193
219	0xbedd2490	-0.43191957
220	0x3e382220	0.17981768
221	0x3e466216	0.19373354
222	0xbe85c79c	-0.26128852
223	0xbe4bfe34	-0.1992119
224	0xbf01cb65	-0.5070098
225	0xbeb7ef88	-0.35924935
226	0xbeec651f	-0.461709
227	0x3da02ae0	0.07820678
228	0x3d3a2dde	0.0454539
229	0xbde40758	-0.11134213
230	0x3dbd3088	0.09237772
231	0x3d9c8672	0.07642831
232	0xbe911684	-0.2833749
233	0xbcbc750a	-0.023005027
234	0xbdc3b56e	-0.09556089
235	0xbc3e8fe1	-0.011630983
236	0x3c816a76	0.015797835
237	0xbebea857	-0.37237808
238	0xbf8193b1	-1.0123197
239	0xbf4b9350	-0.79521656
240	0xbe339c93	-0.17540197
241	0xbf1663d2	-0.58746064
242	0xbf1cf5a1	-0.613123
243	0xbf3e301b	-0.74292153
244	0xbe8d5713	-0.27605495
245	0x3d6feef0	0.058577478
246	0x3e1038c8	0.1408416
247	0x3dfd2398	0.123603046
248	0xbe510d75	-0.2041529
249	0xbebba1e4	-0.3664695
250	0xbe02da1d	-0.12778516
251	0x3cd57016	0.026054423
252	0xbef322f9	-0.4748762
253	0xbf278460	-0.65436363
254	0xbf3675d5	-0.7127355
255	0xbf6cf75b	-0.92564934

dense_1/bias:0 f4 [7]
0	0xbf115f86	-0.5678638
1	0xbe14ba73	-0.1452425
2	0xbd20ead4	-0.03928645
3	0xbeaa1c5d	-0.33224764
4	0x3e932094	0.28735793
5	0x3db30a22	0.08742167
6	0x3ef7feac	0.48436487

dense/kernel:0 f4 [576, 64]
0	0x3da65f5d	0.08123658
1	0x3eae6641	0.3406239
2	0x3ed7f10e	0.42176098
3	0x3ec4cc12	0.38436943
4	0x3e21a3b6	0.15785107
5	0xbf47022c	-0.7773769
6	0x3e6de861	0.23233177
7	0xbe37af1f	-0.17937897
8	0xbf69af76	-0.9128336
9	0x3f3e93c1	0.74444205
10	0x3ec177be	0.3778667
11	0x3df7c4d8	0.12098092
12	0x3f6412cf	0.890912
13	0x3e2bc5fc	0.16774744
14	0xbdf46016	-0.119323894
15	0xbce3ab7c	-0.027791731
16	0x3df4256c	0.119212
17	0x3dc5ff21	0.096678026
18	0xbf142b8d	-0.57878953
19	0x3eaab0c4	0.33337986
20	0x3f62a997	0.88540024
21	0xbeacc2d8	-0.33742404
22	0x3c878a5b	0.016545465
23	0xbe052542	-0.13002494
24	0x3df61636	0.12015955
25	0xbf6f29a7	-0.9342293
26	0x3ea662ff	0.32497403
27	0xbec0b55b	-0.37638363
28	0x3e979bff	0.29611203
29	0xbd151e3c	-0.036405787
30	0x3da22122	0.07916476
31	0xbe043c0d	-0.12913533
32	0xbcc3ab7b	-0.02388548
33	0xbec78fb6	-0.3897683
34	0x3e3dce1d	0.18535657
35	0x3da01b34	0.078176886
36	0xbf05abf4	-0.52215505
37	0xbe990108	-0.298836
38	0xbe414e72	-0.18877581
39	0x3ee4077c	0.4453696
40	0x3ed49aa4	0.4152423
41	0x3eab03e3	0.33401403
42	0xbeddb644	-0.4330312
43	0xbe737eb4	-0.23778802
44	0xbf5951c1	-0.8489037
45	0xbeb6622c	-0.35621774
46	0x3f4d4727	0.80186695
47	0x3f412059	0.75439984
48	0x3e097fc7	0.1342765
49	0xbe24d3b3	-0.16096382
50	0x3d9233d1	0.071387894
51	0xbee17cdb	-0.4404057
52	0xbd28287a	-0.041054226
53	0xbecef3ac	-0.40420282
54	0x3f80461d	1.0021397
55	0x3f743d9b	0.954065
56	0x3f267abb	0.6503102
57	0x3d0075c8	0.031362325
58	0xbde33285	-0.1109362
59	0x3e88f0c6	0.26746196
60	0xbee9d8b1	-0.45673135
61	0xbe76e250	-0.24109769
62	0xbeabad45	-0.33530632
63	0xbf1d9d45	-0.615681
64	0x3f091c0c	0.5355842
65	0x3e48cb33	0.19608764
66	0xbeef1607	-0.46696493
67	0xbe7db8e4	-0.24777561
68	0xbd00572f	-0.031333145
69	0x3c28755c	0.010281887
70	0x3ea3de47	0.32005522
71	0xbd1eb6df	-0.03874862
72	0x3db2fc1c	0.08739492
73	0x3e32fc6e	0.17479107
74	0xbf1c228b	-0.6099021
75	0xbf23c02a	-0.63965094
76	0x3e521643	0.20516305
77	0xbf3ac4bd	-0.7295645
78	0xbcf210c1	-0.029549005
79	0xbf3d22be	-0.7388114
80	0xbdba6a5b	-0.09102317
81	0xbe9a7ff2	-0.3017574
82	0x3e3bc481	0.18336679
83	0x3d8fb76e	0.07017408
84	0xbeee831a	-0.46584398
85	0xbde06f64	-0.10958746
86	0xbddd1733	-0.107954405
87	0x3f30b10a	0.6902014
88	0xbf1c0833	-0.6095001
89	0x3ebd66f2	0.36992604
90	0x3f1d4cff	0.6144561
91	0xbe1fb9ef	-0.15598272
92	0xbec5001f	-0.38476655
93	0x3e3e5aaf	0.1858928
94	0xbed63b5c	-0.41842163
95	0xbf150178	-0.58205366
96	0xbde7be3a	-0.1131558
97	0x3e90e993	0.28303203
98	0xbeece037	-0.46264812
99	0xbec5fc1f	-0.38668916
100	0x3dc49a0b	0.09599694
101	0x3f01751c	0.5056932
102	0xbe6a2ca7	-0.22868596
103	0xbd9b2756	-0.07575862
104	0xbe6d3b73	-0.2316721
105	0xbc3ce254	-0.01152857
106	0x3f1eb755	0.6199849
107	0xbdcf4db2	-0.10122241
108	0xbf3dee09	-0.7419134
109	0x3e69237f	0.22767447
110	0xbe7e1d37	-0.24815832
111	0x3e48e32d	0.1961791
112	0xbe19f4c1	-0.15034772
113	0xbd89e551	-0.06733192
114	0xbe04bdaa	-0.12962976
115	0xb9e64a05	-0.00043924167
116	0x3e77136d	0.24128504
117	0xbf4d0102	-0.8007966
118	0xbdde6672	-0.10859384
119	0x3efef680	0.4979744
120	0xbe9f5678	-0.31120658
121	0xbeb79168	-0.35853124
122	0xbeb814c9	-0.35953358
123	0x3ebd4adf	0.36971185
124	0x3f27060e	0.65243614
125	0x3ecb6762	0.39727312
126	0x3f229282	0.63504803
127	0x3ef71f53	0.48266086
128	0xbde31dc8	-0.11089665
129	0x3eb042e0	0.34426022
130	0xbeec9b86	-0.46212405
131	0xbe589ab4	-0.21152765
132	0x3f327ec8	0.697247
133	0x3dce116a	0.10061915
134	0x3f1c2bc9	0.6100431
135	0xbe15878a	-0.14602485
136	0x3e93a9a9	0.28840378
137	0x3e75d601	0.24007417
138	0xbe828db0	-0.25498724
139	0xbf19cb5d	-0.6007593
140	0x3ebf060d	0.37309304
141	0xbd0f2a63	-0.034952533
142	0xbf3e485b	-0.74329156
143	0xbe923db5	-0.28562704
144	0xbebcbec0	-0.3686428
145	0xbed9c58d	-0.42533532
146	0xbe51a8bd	-0.20474525
147	0x3f191498	0.5979705
148	0x3e9971df	0.2996969
149	0x3e103329	0.14082016
150	0xbed31983	-0.412304
151	0xbf356f30	-0.70872784
152	0xbf501bab	-0.8129222
153	0xbf52b981	-0.82314306
154	0xbe86c1de	-0.26319784
155	0x3f81084e	1.0080659
156	0xbda6ac14	-0.0813829
157	0xbec8e2e9	-0.3923562
158	0x3e01ad47	0.12663756
159	0x3d06a3ef	0.032871183
160	0xbee4a9bd	-0.4466075
161	0xbf6625e7	-0.89901584
162	0xbd065608	-0.03279689
163	0xbd507c93	-0.050900053
164	0xbe86af41	-0.26305583
165	0xbe91d0a9	-0.28479508
166	0x3ec14d52	0.37754303
167	0xbf3af637	-0.73031944
168	0xbf1ff7fb	-0.62487763
169	0xbe9e8e2e	-0.3096785
170	0xbd9ea736	-0.07746737
171	0xbd45744f	-0.048206624
172	0x3eeff42e	0.46865982
173	0xbea54e9a	-0.3228653
174	0xbf6ad3d7	-0.9172949
175	0x3e8615dd	0.26188555
176	0xbde3c75a	-0.11122008
177	0xbdd6ea10	-0.10493863
178	0xbf042627	-0.51620716
179	0xbf37648e	-0.7163781
180	0x3f79f0a4	0.97632813
181	0x3f4d1eaa	0.80124915
182	0xbf0686fb	-0.52549714
183	0x3f308e8b	0.68967503
184	0x3e0780cc	0.13232726
185	0x3f4d2011	0.80127054
186	0xbde056bc	-0.10954043
187	0xbe9917e0	-0.29901028
188	0x3e82b7b1	0.2553077
189	0x3d12b0af	0.03581303
190	0xbdf84e6c	-0.12124333
191	0x3e8c9e05	0.2746431
192	0xbed2f573	-0.41202888
193	0x3e435359	0.19074763
194	0xbd818bf9	-0.06325526
195	0xbec0050e	-0.37503856
196	0xbf3825b7	-0.7193255
197	0xbec6bac9	-0.3881438
198	0x3e44019d	0.1914124
199	0xbe41be01	-0.18920137
200	0x3d27c254	0.04095681
201	0xbe7974ec	-0.24361008
202	0xbe601c97	-0.21885906
203	0xbe267bea	-0.16258207
204	0x3ec2200b	0.37915072
205	0xbe5186e8	-0.20461619
206	0x3e9adaa9	0.3024495
207	0xbeeb52b9	-0.4596155
208	0x3ece1a15	0.40254274
209	0x3e9cb62d	0.3060774
210	0xbe38840f	-0.18019126
211	0x3e07cec8	0.13262475
212	0x3f0447a7	0.5167183
213	0x3ecfa89d	0.4055833
214	0x3e8c3dcf	0.27390906
215	0x3e7c4251	0.24634673
216	0xbe56075c	-0.20901245
217	0xbf77fac7	-0.9686703
218	0x3ee67eb2	0.45018536
219	0xbec63077	-0.3870885
220	0xbf02bc94	-0.51069
221	0xbd0b8177	-0.034059014
222	0xbec4d91c	-0.3844689
223	0xbe30b3ff	-0.17256163
224	0xbdaf891f	-0.08571076
225	0xbe0c110b	-0.13678376
226	0xbe1b5b14	-0.15171462
227	0x3f2a9f8f	0.6664972
228	0x3f0861fd	0.5327452
229	0x3d383520	0.04497254
230	0xbeb15bcf	-0.34640357
231	0x3befeb8f	0.007321782
232	0xbc5be907	-0.013422257
233	0xbf1fe392	-0.6245662
234	0x3dd67c0e	0.1047288
235	0xbf261e25	-0.64889747
236	0xbe1ccda6	-0.15312824
237	0x3e1ff480	0.15620613
238	0x3e6fe548	0.23427308
239	0x3f008b59	0.5021263
240	0xbe0d3eea	-0.13793531
241	0xbef105b3	-0.4707466
242	0x3eec0f3b	0.4610537
243	0x3e8bf42b	0.27334723
244	0x3f1a6af7	0.60319465
245	0xbd979d88	-0.074030936
246	0xbf2a15eb	-0.66439694
247	0x3dc98e0f	0.09841549
248	0xbf53c29a	-0.82718813
249	0xbede9c8a	-0.43478805
250	0xbe433e79	-0.190668
251	0xbe061e41	-0.13097478
252	0x3e34dcbd	0.1766233
253	0xbe983a44	-0.29731953
254	0x3f5305b4	0.8243058
255	0xbe8c8aa4	-0.27449524

dense/bias:0 f4 [64]
0	0xbf8fa490	-1.1222095
1	0xbee40c91	-0.44540837
2	0xbf8079c7	-1.0037163
3	0xbf8ac90f	-1.0842608
4	0xbfad4f3d	-1.3539807
5	0xbf8e9323	-1.1138653
6	0xbf3f5ffc	-0.74755836
7	0xbf3b7c5a	-0.7323662
8	0xbfc192ce	-1.5122926
9	0xbf3daf57	-0.7409567
10	0xbfa8362d	-1.3141533
11	0xbf2054e1	-0.62629515
12	0xbefe97b6	-0.4972512
13	0xbf9e0215	-1.2344385
14	0xbf038097	-0.5136809
15	0xbf81856f	-1.0118846
16	0xbf39d145	-0.72584945
17	0xbf50595d	-0.8138636
18	0xbf4ce06f	-0.8002996
19	0xbf802a29	-1.0012866
20	0xbfb346c6	-1.4005973
21	0xbf88c474	-1.0684953
22	0xbf4b25d0	-0.7935457
23	0xbf451091	-0.76978403
24	0xbeae369e	-0.34026045
25	0xbf081b47	-0.5316662
26	0xbf419d94	-0.7563107
27	0xbf54c40d	-0.8311165
28	0xbf7c98a3	-0.98670405
29	0xbf6bbb88	-0.92083025
30	0xbf5d4664	-0.8643553
31	0xbe6b4e0a	-0.22978988
32	0xbf90f31d	-1.1324192
33	0xbf3b193e	-0.7308539
34	0xbf92d469	-1.1471072
35	0xbf98cf2d	-1.1938225
36	0xbf440e66	-0.7658447
37	0xbf643d95	-0.89156467
38	0xbf7ddbe8	-0.99163675
39	0xbf778489	-0.9668661
40	0xbfb125ff	-1.383972
41	0xbfc43859	-1.5329696
42	0xbf84ab73	-1.0364822
43	0xbf9c849f	-1.2227973
44	0xbee6e148	-0.4509375
45	0xbf579a56	-0.8421987
46	0xbfcc437a	-1.5958092
47	0xbeab016b	-0.3339952
48	0x3eef2e1f	0.46714875
49	0xbfc36148	-1.5264063
50	0xbfbfcf1d	-1.4985081
51	0xbf8292c3	-1.0201038
52	0xbfb53ef7	-1.415984
53	0xbe97423b	-0.29542717
54	0xbfa5f1c7	-1.296441
55	0xbf915f62	-1.1357234
56	0xbf586e97	-0.84543747
57	0xbf6cfae1	-0.9257031
58	0xbfade0a4	-1.358418
59	0xbfa25826	-1.2683151
60	0xbf808c91	-1.0042897
61	0xbfd05a77	-1.6277608
62	0xbfc00542	-1.5001605
63	0xbe8a9a98	-0.2707107

conv2d_2/kernel:0 f4 [64, 64, 3, 3]
0	0x3d70d2f5	0.058794934
1	0xbe6ea361	-0.23304512
2	0x3f440785	0.76573974
3	0x3ef2b0e3	0.4740058
4	0xbe882802	-0.26593024
5	0x3dd11bd6	0.102103874
6	0xbd6d835b	-0.0579866
7	0xbe407eba	-0.18798342
8	0xbf1b346d	-0.6062687
9	0x3ec9f7a6	0.39446753
10	0x3f5bacb1	0.8581038
11	0xbe0130da	-0.12616292
12	0x3f27317b	0.65309876
13	0x3e33bb5b	0.17551939
14	0xbe0b4fff	-0.13604735
15	0x3ec3a4e1	0.3821173
16	0xbf02856a	-0.50984824
17	0xbe50fc26	-0.20408687
18	0xbe91563f	-0.28386113
19	0xbdc2f7ba	-0.09519906
20	0x3d669d23	0.0563022
21	0xbf250141	-0.6445504
22	0xbddbd11f	-0.10733246
23	0x3f5bc3bc	0.8584554
24	0xbec3428a	-0.38136703
25	0xbdb804c9	-0.08985288
26	0x3f16de27	0.5893273
27	0xbc125e93	-0.008933681
28	0x3e9e33d2	0.3089891
29	0xbef6692c	-0.48127115
30	0xbf1ee167	-0.62062687
31	0x3dc9afb1	0.098479636
32	0xbe8c7a4e	-0.2743706
33	0xbd706d58	-0.05869803
34	0xbecbde8b	-0.39818224
35	0x3ecde829	0.40216187
36	0xbc3def36	-0.011592677
37	0x3ed88556	0.42289227
38	0x3edffc1c	0.43747032
39	0xbe38f224	-0.1806112
40	0xbee28b41	-0.44246867
41	0x3e85b88b	0.26117358
42	0xbd9b5167	-0.07583886
43	0xbf0bd999	-0.546289
44	0x3f046927	0.5172295
45	0x3db1987b	0.086716615
46	0x3f1b8027	0.6074242
47	0x3e571eac	0.21007794
48	0xbf2b0943	-0.6681101
49	0xbe74fdbd	-0.23924918
50	0x3e52469d	0.2053475
51	0x3df57f53	0.11987176
52	0x3e753f41	0.2394991
53	0x3e9f59c2	0.31123167
54	0x3edf5d4f	0.43625876
55	0x3f00f704	0.50376916
56	0xbed56e40	-0.41685677
57	0xbee87d96	-0.45408314
58	0x3e8a6869	0.27032784
59	0xbf17d632	-0.5931121
60	0x3f2703a8	0.65239954
61	0xbeb6882b	-0.35650763
62	0xbf166a8f	-0.58756346
63	0xbdb13d85	-0.08654312
64	0xbe68acfa	-0.22722235
65	0x3ec17e86	0.37791842
66	0xbeb06a7b	-0.34456238
67	0x3e785a9c	0.24253315
68	0x3ee3b34d	0.44472733
69	0xbecc9212	-0.39955193
70	0xbe33ea69	-0.17569889
71	0x3e4c2bca	0.19938579
72	0x3e952f25	0.2913753
73	0x3e7ca289	0.24671377
74	0x3effaa84	0.4993478
75	0xbf300e03	-0.6877138
76	0xbf138dfe	-0.5763854
77	0x3e62458c	0.22096843
78	0x3f15cb4c	0.5851333
79	0x3ec0f6c5	0.3768827
80	0x3f6b1fe5	0.9184554
81	0xbd96ee66	-0.0736969
82	0x3db0e858	0.08638066
83	0xbe8a2313	-0.26979885
84	0xbe92051b	-0.2851952
85	0xbe09a24b	-0.13440816
86	0x3e8886f4	0.2666546
87	0xbe95b142	-0.292368
88	0xbf1b9424	-0.6077292
89	0x3c967bf8	0.01836966
90	0xbfc47e4a	-1.535104
91	0x3eb6c8ae	0.3569998
92	0x3f3309b3	0.69936675
93	0x3e625001	0.22100832
94	0x3eb51a21	0.35371497
95	0xbd0de6ea	-0.034644045
96	0x3e929ba0	0.28634357
97	0xbf0b878b	-0.545037
98	0xbe802d85	-0.2503473
99	0x3deda4fb	0.11603733
100	0xbe0a14c7	-0.13484488
101	0xbc91cdfe	-0.01779842
102	0xbf1afc99	-0.60541683
103	0x3e06a730	0.13149714
104	0x3d3e9a62	0.04653395
105	0xbeed53a9	-0.4635289
106	0x3dafb608	0.085796416
107	0x3e4c3207	0.19940959
108	0x3ec33c49	0.3813193
109	0x3f0f4a54	0.5597279
110	0x3e08f3c7	0.13374244
111	0xbf09ea49	-0.53873116
112	0x3d370271	0.044680063
113	0x3f5c5a6f	0.8607549
114	0xbddf3fdf	-0.10900854
115	0x3c8f2995	0.017475883
116	0x3f259a7a	0.6468884
117	0xbe8040df	-0.25049493
118	0xbe072fe5	-0.13201864
119	0xbf0e37ed	-0.55554086
120	0xbf163de3	-0.5868818
121	0x3e115c69	0.14195408
122	0x3ea894e7	0.32926103
123	0xbea48e8a	-0.3214
124	0xbefcb0b5	-0.49353567
125	0xbf3d097b	-0.7384259
126	0xbf2bbe77	-0.670875
127	0xbd48e229	-0.049043808
128	0xbed213e7	-0.4103081
129	0xbf5f58d9	-0.87244946
130	0x3f7215d4	0.9456456
131	0x3ea88eac	0.3292135
132	0x3b67a9a6	0.003534892
133	0x3efb261b	0.4905251
134	0xbec33b2f	-0.3813109
135	0x3ecc3a46	0.3988821
136	0xbf68968d	-0.9085472
137	0xbf55f2a0	-0.8357334
138	0x3e280b9d	0.1641068
139	0xbe1ac360	-0.15113592
140	0xbe961c7f	-0.29318616
141	0xbdc12029	-0.09429962
142	0x3ea2f6fa	0.31829053
143	0xbecda873	-0.4016758
144	0xbde0fb38	-0.10985416
145	0xbe3e71c6	-0.18598089
146	0xbecd0c41	-0.4004841
147	0x3e8492c9	0.25893238
148	0x3dad59c5	0.08464388
149	0xbe100ac2	-0.14066604
150	0xbe7a3d0d	-0.24437352
151	0xbe6360b6	-0.22204861
152	0x3f2d3158	0.6765342
153	0xbe9e20a2	-0.30884272
154	0x3ed4c856	0.41559094
155	0xbe2b2209	-0.16712202
156	0x3ec76137	0.38941357
157	0x3e6cdf37	0.23132025
158	0xbeb517cb	-0.35369715
159	0x3e571b9d	0.21006627
160	0xbe614c8f	-0.22001861
161	0xbf3c67f8	-0.73596144
162	0x3d6dd63f	0.05806565
163	0x3e8be903	0.2732621
164	0x3c86179e	0.016368683
165	0xbe991b66	-0.29903716
166	0xbf130c80	-0.5744095
167	0x3ebaa98b	0.36457476
168	0xbf71be01	-0.9443055
169	0xbe58acf5	-0.21159728
170	0xbebe5af3	-0.37178764
171	0xbf93bfd0	-1.1542912
172	0x3d3c9591	0.046041075
173	0x3e7f0600	0.24904633
174	0xbeddf677	-0.433521
175	0xbece902b	-0.40344366
176	0xbee9fb37	-0.45699474
177	0xbe262baf	-0.16227601
178	0x3e2aec63	0.16691737
179	0xbe872463	-0.26394948
180	0x3d562e13	0.052290034
181	0xbedfc3b4	-0.43703997
182	0x3f3c2249	0.73489815
183	0xbeac6d5d	-0.33677188
184	0xbe8c2235	-0.27369848
185	0x3e4644cb	0.1936218
186	0xbfb92639	-1.446479
187	0x3f1130be	0.56715
188	0x3f9045e9	1.1271335
189	0x3d57a490	0.052647173
190	0xbdb92d41	-0.090418346
191	0xbe9e716e	-0.30945915
192	0xbc683476	-0.014172664
193	0xbeb891be	-0.36048692
194	0xbe8accc9	-0.27109364
195	0x3f4aeed2	0.7927066
196	0xbeb95711	-0.3619924
197	0xbf20bf12	-0.6279155
198	0x3efb03b2	0.49026257
199	0xbc095fdf	-0.008384674
200	0xbf198d71	-0.5998145
201	0xbe5ae3a3	-0.21375899
202	0x3ea79f24	0.32738602
203	0xbea7c5f7	-0.32768223
204	0xbf0ac953	-0.54213446
205	0x3f4b9e2d	0.7953823
206	0x3f2cffba	0.6757771
207	0x3ee4e1d2	0.44703537
208	0x3e7b70e3	0.24554782
209	0xbe986706	-0.297661
210	0x3edd68ec	0.43244112
211	0xbd295ed7	-0.041350212
212	0x3e7877d0	0.24264455
213	0xbe555439	-0.2083291
214	0x3ea685cb	0.3252395
215	0xbf63a78d	-0.8892754
216	0x3ef783bc	0.48342693
217	0xbd448e4c	-0.047987267
218	0xbdebfe8f	-0.115231626
219	0xbe525de6	-0.20543632
220	0xbf677145	-0.9040721
221	0xbe61a194	-0.22034293
222	0xbe292f9b	-0.16522066
223	0x3f5074b7	0.8142809
224	0x3f2538f5	0.64540035
225	0xbec66610	-0.38749743
226	0x3d498cc3	0.049206506
227	0x3ed61501	0.418129
228	0xbf443ffb	-0.76660126
229	0xbf0eedc2	-0.5583154
230	0x3e9ac7da	0.302306
231	0xbe5799cf	-0.21054767
232	0xbe23fcc3	-0.1601439
233	0x3f1b5d33	0.60689086
234	0x3ee9c3d7	0.45657226
235	0x3e978b62	0.29598528
236	0xbf6fcdc0	-0.93673325
237	0xbea291ce	-0.31751865
238	0x3e6d1c61	0.23155357
239	0xbf2545fe	-0.64559925
240	0xbcf192de	-0.029488977
241	0xbe2b312a	-0.16717973
242	0xbf17b4e0	-0.5926037
243	0x3f13dbf5	0.577575
244	0x3bd45be1	0.0064806794
245	0xbf42cf16	-0.7609724
246	0x3f1ff77a	0.62486994
247	0xbee376bf	-0.44426534
248	0x3ea65257	0.32484695
249	0xbe3ce269	-0.18445744
250	0x3ea21575	0.31656995
251	0x3d791b44	0.06081702
252	0x3f289aeb	0.65861386
253	0x3ef50f0e	0.47863048
254	0xbe71b9ff	-0.23606108
255	0xbce68055	-0.028137365

conv2d_2/bias:0 f4 [64]
0	0xbf34045f	-0.7031917
1	0xbc67e107	-0.014152772
2	0xbf30d483	-0.6907427
3	0xbece89b9	-0.4033945
4	0xbe7f02f1	-0.24903466
5	0xbec96f15	-0.3934256
6	0xbf230055	-0.6367238
7	0x3ed016e2	0.40642458
8	0x3e8beead	0.27330533
9	0xbd9e6c06	-0.077354476
10	0xbf269b58	-0.65080786
11	0x3efc6393	0.4929472
12	0xbf46e2eb	-0.7769
13	0xbed9b64d	-0.42521897
14	0xbf774856	-0.9659475
15	0x3ed2e694	0.41191542
16	0xbeac2228	-0.3361981
17	0xbe5858f0	-0.21127677
18	0xbf08821c	-0.5332353
19	0x3dea6a0b	0.11446007
20	0xbf2b3fb5	-0.66894084
21	0xbebed649	-0.37272862
22	0x3d3ba541	0.045811895
23	0xbeaf364d	-0.34221116
24	0xbf20d810	-0.62829685
25	0xbf172a83	-0.5904924
26	0xbd71968c	-0.058981463
27	0xbe8cdba6	-0.27511328
28	0xbefa7f1d	-0.48925105
29	0xbea90101	-0.33008578
30	0xbee8f638	-0.4550035
31	0xbef98531	-0.4873443
32	0xbeee0f8a	-0.4649623
33	0xbda2df90	-0.079527974
34	0xbf337c32	-0.7011138
35	0xbf382431	-0.71930224
36	0xbd912dae	-0.07088791
37	0xc005ca7a	-2.0904832
38	0xbf1a6cf7	-0.6032252
39	0xbf243d6f	-0.6415624
40	0xbec9f374	-0.39443552
41	0xbe80278d	-0.25030175
42	0xbe9c5eab	-0.30540976
43	0xbf66255f	-0.89900774
44	0xbe6cb20b	-0.23114793
45	0xbdc1979a	-0.09452744
46	0xbeb29352	-0.3487802
47	0xbdb78c51	-0.0896231
48	0xbdd16261	-0.102238424
49	0xbf244ee3	-0.6418287
50	0x3f4369e5	0.7633346
51	0xbf46944b	-0.7757003
52	0xbf3a373c	-0.7274053
53	0xbf0fb8bc	-0.5614126
54	0xbd8d4bb0	-0.06899202
55	0xc00f6ed5	-2.2411397
56	0xbf88713b	-1.0659555
57	0xbec57a1e	-0.3856973
58	0x3ee82695	0.45341936
59	0xbe6b6faf	-0.22991823
60	0x3e9ac196	0.3022582
61	0xbf4d5abd	-0.8021658
62	0x3eb3309c	0.34998024
63	0xbeb200dd	-0.34766284

conv2d_1/kernel:0 f4 [64, 32, 3, 3]
0	0xbf2e5b51	-0.6810809
1	0xbe961fe1	-0.29321197
2	0xbf371e51	-0.71530634
3	0xbe4e512f	-0.20148157
4	0x3f1b54c2	0.60676205
5	0x3ebc6ca5	0.3680164
6	0xbd59c9e6	-0.05317106
7	0xbef3ba57	-0.47603104
8	0x3e6e859b	0.23293154
9	0x3dc982b7	0.09839385
10	0x3ecb63d7	0.3972461
11	0x3eb97fa5	0.36230198
12	0xbec5c715	-0.3862845
13	0xbdca6534	-0.09882584
14	0xbec8467e	-0.3911628
15	0xbf464ea2	-0.77463734
16	0x3db5af11	0.08871282
17	0x3da1fb2c	0.07909235
18	0xbeb0f798	-0.345639
19	0x3f01cf86	0.5070728
20	0xbde6ce33	-0.11269798
21	0xbefb0e32	-0.49034268
22	0x3e6d8d98	0.23198545
23	0xbf602a4c	-0.8756454
24	0x3ebc770b	0.36809573
25	0xbd350b84	-0.044200435
26	0x3dfd9d11	0.12383474
27	0xbe3f3d83	-0.18675809
28	0x3c333ea6	0.0109402295
29	0x3f5fef12	0.8747417
30	0xbf38bc62	-0.7216245
31	0xbe916bdf	-0.28402612
32	0xbe1d4972	-0.15360048
33	0x3e6bfdd4	0.23046046
34	0xbd7fdcbe	-0.062466376
35	0x3dcf1c0c	0.101127714
36	0xbd45e793	-0.04831655
37	0x3d12728b	0.035753768
38	0x3e438ff6	0.19097885
39	0x3c3966d4	0.01131602
40	0xbd55bb86	-0.05218079
41	0x3d335cae	0.043789558
42	0x3dabe7a6	0.08393793
43	0xbea09103	-0.31360635
44	0xbc5319fe	-0.012884615
45	0x3e72d5c5	0.23714359
46	0x3d77d26f	0.06050342
47	0xbf39edb3	-0.72628325
48	0x3e31d8ee	0.17367908
49	0xbe5c02d2	-0.21485451
50	0xbfc10379	-1.5079185
51	0x3e9f7a9c	0.3114823
52	0xbc82793a	-0.015926946
53	0xbecc42c2	-0.39894682
54	0x3ecff005	0.40612808
55	0xbe38669f	-0.18007897
56	0xbe19c6ef	-0.15017293
57	0xbe22a8c4	-0.15884691
58	0x3ddbe1bc	0.10736415
59	0x3e508641	0.20363714
60	0x3e351083	0.1768208
61	0xbe8e8fd8	-0.2784412
62	0x3ea6e611	0.32597402
63	0xbf8d3894	-1.1032891
64	0xbe1363e5	-0.14393575
65	0x3e034dc2	0.12822631
66	0xbfa5d208	-1.2954721
67	0x3e3b4e3f	0.18291567
68	0xbd2910ce	-0.04127579
69	0xbe38737c	-0.18012804
70	0xbd6da81b	-0.058021646
71	0x3f11c23c	0.56937003
72	0x3f0afab8	0.54288816
73	0x3f075d74	0.52876973
74	0xbf2625db	-0.6490151
75	0x3e2114db	0.15730612
76	0xbd9a7145	-0.07541136
77	0xbed39fa7	-0.41332743
78	0x3d9cfaaa	0.07664998
79	0x3d72b6e2	0.059256442
80	0xbda2bbc1	-0.079459675
81	0xbf88669e	-1.0656316
82	0x3dd17c0e	0.1022874
83	0x3e4b06fc	0.19826883
84	0xbf627851	-0.8846484
85	0xbdfd8a58	-0.123799026
86	0xbe9fd8c7	-0.31220075
87	0xbee842f7	-0.4536359
88	0x3eb1b0de	0.3470525
89	0xbf1c7e98	-0.61130667
90	0xbf1b79cb	-0.60732716
91	0x3db70952	0.089373246
92	0x3e8fabfd	0.28060904
93	0xbe156ba3	-0.14591841
94	0xbe214a87	-0.15751086
95	0xbed4718d	-0.41492882
96	0x3f9674bd	1.1754376
97	0x3ec615c4	0.3868848
98	0xbf16fb5a	-0.5897728
99	0xbf0b1eec	-0.5434406
100	0xbeab0ad4	-0.334067
101	0xbdc4a586	-0.096018836
102	0xbfa5eed2	-1.2963507
103	0xbea6f90b	-0.3261188
104	0x3eaaee3d	0.33384886
105	0x3f571e01	0.8403016
106	0xbf0a335e	-0.5398463
107	0xbf0f9a2a	-0.5609461
108	0xbf1d78af	-0.61512274
109	0x3d062402	0.032749183
110	0xbeb83494	-0.35977614
111	0x3e5014e8	0.20320475
112	0x3c8b3a0c	0.016995452
113	0xbd081743	-0.03322531
114	0xbe36faca	-0.17869106
115	0x3d5d04dd	0.053959716
116	0xbc1c941d	-0.009556797
117	0xbf4f9be5	-0.8109725
118	0xbe402eda	-0.18767872
119	0x3e43e872	0.1913164
120	0x3e6e19ec	0.23252076
121	0x3ec15c20	0.37765598
122	0x3f43ac6a	0.7643496
123	0x3e0bc564	0.13649517
124	0xbe28491f	-0.16434143
125	0xbeb4914f	-0.35267112
126	0xbe0bfee9	-0.1367146
127	0xbee34e26	-0.4439556
128	0xbdd73870	-0.105088115
129	0x3ef21f72	0.47289616
130	0x3e04ec96	0.12980875
131	0xbec79302	-0.38979346
132	0x3f6424ed	0.89118844
133	0xbe17182c	-0.14755315
134	0xbed76d79	-0.42075709
135	0xbe9e0ea0	-0.30870533
136	0x3f861028	1.047368
137	0x3f19e89b	0.6012055
138	0xbda37adf	-0.0798242
139	0xbf0f017c	-0.5586164
140	0x3e322c87	0.17399798
141	0xbf4ec27b	-0.80765504
142	0x3f7734aa	0.96564734
143	0xbdbcb8e8	-0.092149556
144	0xbe355f9b	-0.17712252
145	0xbf59a5cb	-0.85018605
146	0x3e79c1a0	0.24390268
147	0xbf7e1fe7	-0.9926743
148	0x3f4cc665	0.79990226
149	0xbe860b3f	-0.26180455
150	0xbd6c03f1	-0.057620946
151	0x3c9b0570	0.018923491
152	0x3f24eaeb	0.64420956
153	0xbe897ad4	-0.26851523
154	0xbe98c652	-0.29838806
155	0xbf286297	-0.65775436
156	0xbe337542	-0.17525199
157	0x3e884e5b	0.2662228
158	0x3e1cc0c7	0.15307914
159	0xbf3c8850	-0.73645496
160	0x3d53eb25	0.051737923
161	0xbe079084	-0.13238722
162	0xbe574f00	-0.2102623
163	0xbe7e0966	-0.24808273
164	0x3c5408cc	0.01294155
165	0xbec3142a	-0.3810132
166	0x3e2b65ef	0.16738103
167	0x3ef7e54d	0.4841713
168	0xbf32d580	-0.69857025
169	0xbdaf039a	-0.08545609
170	0x3ed3c4c5	0.4136106
171	0xbf5626c0	-0.8365288
172	0xbe97c341	-0.29641154
173	0x3e4c6e36	0.19963917
174	0xbdf69cf8	-0.12041658
175	0xbe97837a	-0.29592496
176	0x3e49c233	0.19702987
177	0xbe7027a9	-0.23452629
178	0xbe2de31b	-0.16981165
179	0xbea730fc	-0.3265456
180	0xbe386ba3	-0.1800981
181	0xbd66b1e1	-0.056321982
182	0x3d996ef5	0.074918665
183	0xbe761ff4	-0.24035627
184	0x3f1cbc9c	0.61225295
185	0xbe45aeaa	-0.1930491
186	0xbf7fe58a	-0.99959624
187	0x3c66dee8	0.014091231
188	0x3ee7a66a	0.4524415
189	0xbf9d242a	-1.2276661
190	0xbedcbbab	-0.4311193
191	0x3e58c27d	0.21167941
192	0xbe4cfe91	-0.20018984
193	0xbe329379	-0.17439069
194	0xbe9c36b1	-0.30510476
195	0x3e87070b	0.2637256
196	0xbeb049a0	-0.3443117
197	0xbcff9787	-0.031200184
198	0xbd0c7b62	-0.034297355
199	0xbdc0a5d7	-0.094066314
200	0xbe21317e	-0.15741536
201	0xbe604133	-0.21899872
202	0xbcc8f0ea	-0.02452894
203	0x3c78c006	0.015182501
204	0xbb3479cc	-0.0027538417
205	0xbce67cda	-0.028135706
206	0x3dd62c73	0.10457697
207	0x3ecccf70	0.40002012
208	0x3c923588	0.017847791
209	0xbf97456d	-1.1818062
210	0x3f4de6eb	0.8043048
211	0x3d9745b1	0.073863395
212	0xbf0da515	-0.5533002
213	0x3ea253db	0.31704602
214	0x3e53a856	0.20669684
215	0xbf67b6ee	-0.90513504
216	0xbe4a9b40	-0.19785786
217	0xbf9ee174	-1.2412553
218	0xbe116bd6	-0.14201292
219	0x3f0f1530	0.55891705
220	0x3db74f4c	0.089506716
221	0xbfeb9dc8	-1.8407526
222	0x3e2309d1	0.15921713
223	0x3e8f6481	0.28006366
224	0xbfca6cc5	-1.5814444
225	0xbed3e74f	-0.41387412
226	0xbe8cf340	-0.27529335
227	0xbde62974	-0.11238375
228	0x3f526078	0.8217845
229	0x3ef5694d	0.479319
230	0xbdd0a80f	-0.10188305
231	0xbf0bc00e	-0.5458993
232	0xbda23e74	-0.07922068
233	0xbdde7571	-0.10862244
234	0xbee26332	-0.44216305
235	0x3ee9fcdc	0.4570073
236	0x3deca8c9	0.11555631
237	0xbe083e64	-0.1330505
238	0xbd2be593	-0.041966986
239	0xbe388dcd	-0.18022843
240	0xbe237334	-0.15961915
241	0xbe9371da	-0.287978
242	0x3e88e35a	0.26735955
243	0xbe474337	-0.19459234
244	0xbe9357f0	-0.28778028
245	0xbdde9fd9	-0.10870332
246	0xbf61ab19	-0.881517
247	0x3e8ffa79	0.28120783
248	0xbe18a6b2	-0.14907339
249	0x3cc127f8	0.023578629
250	0x3deb6ef1	0.1149577
251	0x3f022291	0.50833994
252	0xbdf61ace	-0.12016831
253	0xbdb066a0	-0.08613324
254	0xbc4933f1	-0.01228045
255	0xbd11cbcc	-0.035594746

conv2d_1/bias:0 f4 [64]
0	0xbf08672f	-0.53282446
1	0xbf24995e	-0.6429652
2	0xbf07601c	-0.52881026
3	0xbf1bbd04	-0.6083529
4	0xbed987f9	-0.4248655
5	0xbe45166a	-0.19246832
6	0xbf1a1d12	-0.6020061
7	0xbeaf6a5e	-0.3426084
8	0xbeecd2b0	-0.46254492
9	0xbd451016	-0.048111044
10	0xbed534ce	-0.4164185
11	0x3e883dae	0.26609558
12	0xbf1d9557	-0.61556
13	0xbb3df1d9	-0.0028983264
14	0xbecfa803	-0.4055787
15	0xbf1d27eb	-0.61389035
16	0xbea3a2b1	-0.3196006
17	0x3e1b976e	0.15194485
18	0xbee82904	-0.45343792
19	0xbea3f736	-0.32024544
20	0xbd20822c	-0.03918664
21	0xbf05348f	-0.52033323
22	0xbf09762a	-0.5369593
23	0xbeccb1ef	-0.39979503
24	0xbd3f0c0c	-0.04664235
25	0xbe7f944d	-0.24958916
26	0xbe37e600	-0.17958832
27	0xbefb4e89	-0.49083355
28	0xbf0b6a01	-0.54458624
29	0xbe206e20	-0.1566701
30	0xbeb460fd	-0.35230246
31	0xbf15b90b	-0.5848548
32	0xbeee7c96	-0.46579427
33	0xbeaa8fb1	-0.33312753
34	0xbef7c996	-0.48395985
35	0xbed03870	-0.40668058
36	0xbf0a8efe	-0.5412444
37	0xbea2bbd5	-0.3178393
38	0xbea67cf3	-0.32517204
39	0xbda6f65a	-0.081524566
40	0xbf010331	-0.50395495
41	0xbeda9f01	-0.42699435
42	0xbf103ca7	-0.5634255
43	0xbf1f94ef	-0.6233663
44	0xbf5bdc63	-0.8588316
45	0xbf045376	-0.5168985
46	0xbf279c64	-0.6547301
47	0xbee944a7	-0.4556019
48	0xbf19b498	-0.6004119
49	0xbebc4d00	-0.36777496
50	0xbee36227	-0.44410822
51	0xbe9235d0	-0.2855668
52	0xbecc8590	-0.3994565
53	0xbdafbb56	-0.08580653
54	0xbf0f4ce9	-0.5597673
55	0xbf050e79	-0.5197521
56	0xbf396458	-0.7241874
57	0xbe91d5bc	-0.2848338
58	0xbeefc683	-0.4683114
59	0xbf4c2974	-0.7975075
60	0xbf2548e6	-0.6456436
61	0xbd856692	-0.06513704
62	0xbf253440	-0.6453285
63	0xbe859623	-0.26091108

conv2d/kernel:0 f4 [32, 1, 3, 3]
0	0x3e690cda	0.22758809
1	0x3eb0592f	0.34443042
2	0xbdf4c91f	-0.11952423
3	0xbf2530d9	-0.6452766
4	0xbe12caae	-0.14335129
5	0x3eb8a588	0.3606379
6	0x3f114373	0.56743544
7	0xbee47e7a	-0.44627744
8	0xbf4d03c6	-0.8008388
9	0x3da994eb	0.08280357
10	0xbe3e2522	-0.18568853
11	0xbef090bb	-0.4698542
12	0x3e860ae1	0.26180175
13	0x3e15a5ea	0.14614072
14	0x3e5f2ac8	0.21793664
15	0x3e32663b	0.1742181
16	0x3da768dd	0.08174298
17	0x3e0d8b69	0.13822712
18	0x3e5133c4	0.20429903
19	0xbef04e3c	-0.46934688
20	0x3ea44fcc	0.3209213
21	0xbf8c01ed	-1.0938088
22	0x3dafa5f3	0.08576574
23	0x3d928add	0.07155392
24	0x3e9eb362	0.30996233
25	0xbe4ccef9	-0.20000829
26	0xbf919548	-1.1373682
27	0x3d79740c	0.060901687
28	0xbed5e376	-0.417751
29	0xbdc7fee8	-0.097654164
30	0x3ea76588	0.3269465
31	0xbf3fd548	-0.74934816
32	0x3e9133e8	0.28359914
33	0x3e93400d	0.28759804
34	0xbe627c74	-0.22117788
35	0x3ead86df	0.3389196
36	0x3d325f64	0.043548003
37	0x3dde3fb3	0.108519934
38	0xbd8f6dfa	-0.07003398
39	0x3da26393	0.079291485
40	0x3d00173e	0.031272165
41	0xbdf13fdc	-0.11779758
42	0x3d813e9d	0.06310771
43	0x3da73aec	0.08165535
44	0xbd8e8b0e	-0.06960116
45	0xbe4f01b3	-0.20215492
46	0xbf16976e	-0.58824813
47	0xbede552a	-0.4342435
48	0xbeb9633e	-0.36208528
49	0xbdbb2065	-0.09137038
50	0xbd8c45c9	-0.06849248
51	0x3d7997cb	0.060935777
52	0x3ed8b994	0.42329085
53	0x3e46ac7a	0.19401732
54	0xbd1c52e6	-0.038164996
55	0x3dd9e485	0.1063929
56	0xbec2d6df	-0.3805456
57	0xbeca5a34	-0.39521945
58	0x3f0eb1e8	0.55740213
59	0xbebc9ea9	-0.36839798
60	0xbea1c059	-0.31592062
61	0x3ec9420a	0.39308196
62	0xbe0b8ac0	-0.13627148
63	0xbea2fb71	-0.3183246
64	0x3e5d9c7e	0.21641728
65	0x3eaa2251	0.33229306
66	0xbebd93e7	-0.37026903
67	0xbf8d21b5	-1.1025912
68	0xbec6ede1	-0.38853362
69	0x3edf5e1b	0.43626484
70	0xbeb2b762	-0.34905535
71	0xbc9f537d	-0.01944899
72	0x3c99f8f1	0.018795462
73	0xbe9265f2	-0.28593403
74	0x3dc9c354	0.09851709
75	0x3e828f1c	0.2549981
76	0x3e8f39cb	0.2797378
77	0x3ebbc042	0.3667012
78	0xbec8ca58	-0.39216876
79	0xbe9bf4d7	-0.30460235
80	0xbebb596d	-0.36591664
81	0x3df31be0	0.11870551
82	0xbea16dfb	-0.3152922
83	0xbd96d16d	-0.073641635
84	0x3e90d1d0	0.28285074
85	0xbbe6f119	-0.007047784
86	0xbeb8071c	-0.35942924
87	0x3d21e384	0.039523616
88	0x3ea6af6e	0.32555717
89	0xbf073d66	-0.5282806
90	0xbea06db1	-0.31333688
91	0xbe6090a1	-0.21930172
92	0x3d9042a0	0.07043958
93	0xbf8767fb	-1.0578607
94	0x3e0178ec	0.12643784
95	0x3e673ce3	0.2258182
96	0xbe520355	-0.20509084
97	0x3dafc6e1	0.08582855
98	0x3dfa28e7	0.12214833
99	0xbdb303f1	-0.08740986
100	0xbdf92555	-0.12165324
101	0xbebcd713	-0.3688284
102	0xbf810e7a	-1.0082543
103	0x3f1fae81	0.62375647
104	0x3f35669f	0.7085971
105	0xbf04224e	-0.51614845
106	0xbf0dc0bc	-0.55372214
107	0xbeb4c0bc	-0.35303295
108	0xbdfcf4d0	-0.12351382
109	0x3e617f22	0.22021154
110	0x3e824552	0.25443512
111	0xbe390f36	-0.18072209
112	0x3eaef4b5	0.34171072
113	0xbde51f1b	-0.111875735
114	0xbf9f1509	-1.2428294
115	0xbe29a0cf	-0.1656525
116	0x3eb7822a	0.35841495
117	0xbedf1769	-0.43572548
118	0x3cd5a4bd	0.02607953
119	0x3e8769d9	0.26447943
120	0xbeae2b89	-0.3401759
121	0x3ebf5ada	0.37374002
122	0xbe99ab59	-0.3001354
123	0x3dfe7414	0.12424484
124	0x3e4d2d13	0.20036726
125	0xbe098b41	-0.13432027
126	0x3ec71444	0.3888265
127	0xbf098332	-0.53715813
128	0xbe6d44da	-0.23170796
129	0x3c333b0a	0.010939369
130	0xbf2fa862	-0.68616307
131	0x3e8da973	0.27668342
132	0xbf2ad6fc	-0.6673429
133	0xbd4f902b	-0.0506746
134	0x3eb26b96	0.34847707
135	0xbf04e5b9	-0.5191303
136	0xbefc6114	-0.49292815
137	0x3eb0ba59	0.34517172
138	0x3f11bb6e	0.5692662
139	0xbd03f357	-0.03221449
140	0xbf08fd3c	-0.53511405
141	0xbea7a6d4	-0.32744467
142	0x3ead392b	0.33832678
143	0x3db3f2fa	0.087865785
144	0xbeca80df	-0.39551446
145	0x3d46134b	0.048358243
146	0x3ec33b31	0.38131097
147	0x3e8de949	0.27717045
148	0xbf570e07	-0.8400578
149	0x3d8bc39b	0.06824418
150	0x3eb186f5	0.34673277
151	0x3d83082d	0.06398044
152	0xbe40d7e8	-0.18832362
153	0x3ef0995c	0.46992004
154	0x3d0de3f6	0.03464123
155	0x3dc3364c	0.09531841
156	0xbe712465	-0.2354904
157	0x3e1146ba	0.14187136
158	0x3e4eba69	0.20188297
159	0xbea89829	-0.3292859
160	0xbed35d13	-0.41281947
161	0x3e027bf2	0.12742594
162	0x3e0edc46	0.13951215
163	0x3dd67c9f	0.10472988
164	0x3ddc7a34	0.10765496
165	0x3e414265	0.18872984
166	0x3c8cb0ae	0.017174091
167	0x3e463d99	0.19359435
168	0x3e14ac44	0.14518839
169	0x3e56cc20	0.20976305
170	0x3e01e562	0.12685159
171	0x3d2da297	0.042391386
172	0x3db8daf7	0.09026139
173	0x3ea49b70	0.3214984
174	0xbf668911	-0.90052897
175	0x3da96d93	0.08272853
176	0x3e2aaf47	0.16668426
177	0xbf313a55	-0.6922963
178	0xbf129586	-0.57259405
179	0x3dd1c809	0.10243232
180	0xbee31bee	-0.44357246
181	0xbdfcb4cc	-0.12339172
182	0x3eb33eb9	0.3500879
183	0xba3190bc	-0.0006773581
184	0xbee7be0a	-0.45262176
185	0xbeb5883c	-0.354555
186	0x3e5225b1	0.2052219
187	0x3ebc4497	0.3677108
188	0x3e4b0f34	0.19830018
189	0xbc71848d	-0.014741075
190	0x3e49dfc3	0.19714265
191	0xbe827a31	-0.2548385
192	0xbb733f1a	-0.003711647
193	0x3eb99267	0.3624451
194	0xbec215a0	-0.37907124
195	0x3ed38bf3	0.4131771
196	0x3dc2403f	0.0948491
197	0xbe6ade51	-0.2293637
198	0xbc4d2b30	-0.012522504
199	0x3c94c664	0.018161006
200	0xbe1aa3a4	-0.15101486
201	0x3d5b3b61	0.053523425
202	0x3d05c6d9	0.03266034
203	0x3d835d19	0.06414241
204	0xbe10bb4b	-0.14133947
205	0x3d74d3bc	0.059772238
206	0x3d38ed36	0.045148097
207	0x3e399faf	0.1812732
208	0x3eb24d3e	0.34824556
209	0x3e396acc	0.18107146
210	0xbc8bae4d	-0.017050887
211	0xbed3896c	-0.41315782
212	0xbe8197fc	-0.25311267
213	0xbea1acb2	-0.3157707
214	0x3db37910	0.08763325
215	0x3e201bac	0.15635556
216	0x3eb66ac5	0.35628334
217	0x3e679b91	0.22617938
218	0xbee5a9ee	-0.4485621
219	0x3dff3faa	0.12463315
220	0xbf02ad03	-0.51045245
221	0xbec08aa0	-0.37605762
222	0xbe0a672a	-0.13515916
223	0xbe87b7b2	-0.26507336
224	0x3e9849a0	0.2974367
225	0x3f148efc	0.58030677
226	0x3deed7d8	0.11662263
227	0xbed8d0b4	-0.42346728
228	0xbf39888e	-0.7247399
229	0x3d9e1d7d	0.07720468
230	0xbda44498	-0.08020896
231	0x3ec99bbb	0.39376625
232	0x3d191ac4	0.03737904
233	0x3e2c482e	0.1682441
234	0x3e57af23	0.21062903
235	0xbe7b1785	-0.2452069
236	0xbd60cfa6	-0.05488553
237	0x3e4bfdb2	0.19920996
238	0x3e95ed22	0.2928248
239	0xbe849f37	-0.2590272
240	0xbf1a08ac	-0.6016948
241	0x3e674424	0.22584587
242	0x3e874967	0.2642319
243	0xbf2e4a9b	-0.6808259
244	0xbe0499ec	-0.12949342
245	0x3e870b65	0.2637588
246	0xbe78fe0b	-0.2431566
247	0xbeb4f7f6	-0.3534543
248	0x3e3e3ee8	0.18578684
249	0x3e956e08	0.2918551
250	0xbef39061	-0.4757109
251	0x3d19dcd1	0.037564103
252	0x3d8b1dc1	0.067927845
253	0xbccce44c	-0.025011204
254	0xbce4e31f	-0.027940331
255	0x3d351bdc	0.044216022

conv2d/bias:0 f4 [32]
0	0xbebe70e7	-0.37195513
1	0xbf25b9b4	-0.64736485
2	0xbdd30785	-0.103041686
3	0xbecbc0af	-0.39795443
4	0xbed28099	-0.41113737
5	0xbd4519a0	-0.04812014
6	0xbd626f5d	-0.055281986
7	0x3c9f1144	0.019417413
8	0xbe0bc60e	-0.1364977
9	0xbcf1f312	-0.02953485
10	0xbe42798f	-0.18991683
11	0xbcd38368	-0.025819495
12	0xbefd47ce	-0.49468845
13	0xbe8a8b0d	-0.27059212
14	0xbcc4a08e	-0.02400234
15	0xbd82334b	-0.063574396
16	0xbe663c2d	-0.22483893
17	0xbf08294d	-0.5318802
18	0xbf3a6505	-0.72810394
19	0xbec5f067	-0.38659975
20	0xbed8d28d	-0.42348137
21	0xbf00f686	-0.50376165
22	0xbe946f3b	-0.28991112
23	0xbe294b16	-0.1653255
24	0xbde0cbf6	-0.109764025
25	0xbf00ba8c	-0.5028465
26	0xbe6c1837	-0.23056112
27	0xbd4629f0	-0.04837984
28	0xbe58bc23	-0.21165518
29	0xbf270f9d	-0.652582
30	0xbdee044b	-0.116219126
31	0xbedb8d6b	-0.4288133
