Assets/Neural/shapeClass.onnx (onnx, 406164 bytes, 4 tensors)

dense_9/kernel:0 f4 [128, 7]
00000000: 64fc b43e ffd2 e03e 1058 213f f547 053d
00000010: aa57 73bf e9c3 32bf 06b3 20bd 84c5 fa3d
00000020: 8b94 b73e 398a b9be 1eb3 41bf f295 57bf
00000030: 8f6d 1bbe e852 de3e 9da9 7abf 8fc7 68bf
00000040: 503a b2be 65d3 1b3f 9761 e93e c55f 543e
00000050: a6a4 a2be 7661 c4bd c4f6 3c3f 11a7 dcbe
00000060: 28bb 133e a126 0bbf 27a5 e1be 3569 0d3f
00000070: 9bb8 483f 4c8e 34be 0aed 1fbf dd21 543d
00000080: 81e9 8bbd ebe7 d7bf d8ed 543e 986a 1fbe
00000090: 8f27 76bd 1ae1 3d3e b6cb 313d d493 883d
000000a0: 5074 b8bd 455b 55bc 0147 8c3e 209c d9bd
000000b0: 96e3 85bd f1a0 ecbc 74d9 613e 0c58 51bd
000000c0: 0509 6c3b a861 b4bb 2a7f 8dbf bb49 a2be
000000d0: 6200 093e 9c34 8f3e 5b2f f53e afb1 aa3e
000000e0: d8db 7abe ca2a b6be 4d12 1cbf 304c 123e
000000f0: 93dc 393f c9eb 9b3d f0cd dbbe 207c c53e
00000100: 38f5 14be b29b 603f c815 f0be 7571 4dbf
00000110: 0a2f d13d 9d65 04bf dd2c 28bd 0eb4 083e
00000120: 08e7 66bf 12a7 4d3f 2e45 bbbb cba9 c0be
00000130: 17a4 13bf 55fe 7a3d 691d d13e 75b6 e83e
00000140: cd6a 143f 2e5b 82bf 37f1 573d 7158 3dbe
00000150: db28 e6be b191 953e 00ed f03c f064 29bf
00000160: 06e2 053f 6486 47bb b3f6 14bf dda4 9e3e
00000170: f5ef adbe 537b 303f c6bf 8cbf 5a19 30bf
00000180: b1ef b73e b82d 6ebe 9c3a f83d 4cab 9f3e
00000190: 962e cc3e 42db 07bf 3113 87be 4afc 373d
000001a0: 6b73 1c3f 9f28 d9bd 8eb4 b03d a0f7 24bf
000001b0: 190f 4b3f 1189 693e 4d77 c9be efcf 74be
000001c0: d957 f63e 3ace 8ebf aac6 8c3e 9369 6ebf
000001d0: a934 883e da22 163f 93cd 1f3e d148 283f
000001e0: a139 2d3e e61a 573e cc25 113e 8315 73bf
000001f0: 3352 85bf 67db 3dbf c159 e43d ff83 c03e
00000200: 0729 2dbf 637f 983e a295 5cbf f338 ae3e
00000210: d22c 95be 5291 bdbe 9fda 45bf 2aa9 97be
00000220: a5eb 3ebf d601 c73e 8fcc 6b3f 5f20 18bf
00000230: 0276 cf3e f0ad 90be ce64 95bd f9bf f7be
00000240: 7f4d 34bf ce81 ca3e 997e 2a3f d76d 413e
00000250: b2f7 373f 5fd4 4dbf 4f46 223e 4d09 a9bf
00000260: cb95 233d 6a4d 363e 31e8 98be 9fdd 39bf
00000270: 0c15 27bd 785b f0bd 4b41 063f 8d0a d8be
00000280: e734 c23e 4b41 2bbf b6d2 ab3e 124f f13e
00000290: 259b d8bf 8bde f83e 7c7f 9dbe 1cca 973e
000002a0: ce56 4bbc 30bf 6f3e d9ae 10be 81f5 36be
000002b0: 9820 0ebf 1587 783e 4c9b 32bf 112e ec3d
000002c0: 08c8 143e f742 9cbe 111e f4bd 891e 8d3d
000002d0: 081d b2be cfbc 813e a87c 303f b9a6 0abe
000002e0: 10b2 12bf 1e8d c1be 5768 c8be 4ee5 363e
000002f0: 52a8 093f 77b5 17be c64f cebb 4d9a abbe
00000300: eff2 b93e 8eaf dd3e 671e 28bf 2c1c 9abf
00000310: c5f8 eb3e 8df6 8e3f cca1 89bf 58ea f03d
00000320: aa18 f3be a113 8b3e 4526 43bf bc73 82bf
00000330: c651 e23e 7e8c 693f 5054 53bf 211c 5d3e
00000340: c7d3 c0bf 1cff 22bf ec02 b3be 2286 1d3f
00000350: 50de 0f3e 6d9d 693e d6e1 6cbf 3ed2 223f
00000360: f63d f83a ba86 893e bfce 883c 9f5e 0bbf
00000370: 9a8e 27bf 88cc 11be 223b 813f ad91 7cbf
00000380: 9507 04bf ad42 5f3d 39a2 28bf b757 c83e
00000390: bdb3 f23e 308d 93be 8cef 36bf 36d2 9dbe
000003a0: 1454 c7bd 55e9 27bd b3dc 933b 2d14 c63d
000003b0: 0a8a d0bd 5c23 8c3d 6057 8abe d7e4 aa3e
000003c0: 5f47 b2bf 1de0 353f 0b8e 0abf eb76 293e
000003d0: 51e3 90bf 721e ea3c 31ba bf3e 2917 7dbf
000003e0: a1a4 033f 1a18 12bf 1e2b 553e 70f5 8a3e
000003f0: a141 923e 4357 e5be c302 c23c 576f 893e
0.3534881 0.43910977 0.63025 0.032539327 -0.9505564 -0.69830185 -0.03923323 0.12244704
0.35855517 -0.36238268 -0.75663936 -0.84213173 -0.15178512 0.43422627 -0.9791506 -0.909295
-0.34810114 0.6086944 0.45582268 0.20739658 -0.31766242 -0.09588902 0.73814034 -0.43096212
0.14426863 -0.5435582 -0.44071314 0.5523866 0.78406686 -0.17632407 -0.6247107 0.051790107
-0.06831647 -1.6867651 0.20793855 -0.15568006 -0.06009632 0.185429 0.043407165 0.06668821
-0.0900656 -0.013022249 0.27397922 -0.106254816 -0.06537549 -0.028885337 0.22055608 -0.05110936
0.0036016118 -0.0055048056 -1.1054432 -0.31696877 0.13379052 0.27969825 0.47887692 0.33338687
-0.24497926 -0.3557952 -0.60965425 0.14286876 0.72602195 0.07613332 -0.42930555 0.38571262
-0.14546669 0.8773757 -0.46891618 -0.80251247 0.1021405 -0.5171755 -0.04105841 0.13349935
-0.90196276 0.80333054 -0.005715034 -0.37629542 -0.57672256 0.061277706 0.4084275 0.45451704
0.57975465 -1.0184076 0.052720275 -0.18490769 -0.44953045 0.29212716 0.029409885 -0.66169643
0.5229801 -0.0030445093 -0.58188933 0.30985156 -0.33972135 0.6893818 -1.0996025 -0.68788683
0.35925058 -0.23259628 0.12120554 0.31185377 0.39879292 -0.53068936 -0.2638183 0.044918336
0.61113614 -0.10603451 0.08628188 -0.64440346 0.7931991 0.22806193 -0.39348832 -0.23907445
0.48113897 -1.1156685 0.2749532 -0.93129843 0.26602677 0.5864693 0.15605764 0.6573611
0.16916515 0.21006355 0.14174575 -0.949547 -1.041571 -0.74162906 0.11149932 0.37600705
-0.6764073 0.29784688 -0.8616582 0.34027824 -0.29135758 -0.37024933 -0.77286714 -0.2962125
-0.74578315 0.38868588 0.92109007 -0.59424394 0.4051972 -0.28257704 -0.072946176 -0.4838865
-0.7043075 0.39552158 0.6659942 0.18889557 0.7186233 -0.8040218 0.15847133 -1.3205963
0.039937776 0.17802969 -0.29864648 -0.7260379 -0.040791556 -0.11736196 0.5244338 -0.4219555
0.37930986 -0.66896504 0.33559197 0.47130638 -1.6922346 0.48607287 -0.30761325 0.29646385
-0.012410833 0.23412776 -0.14129199 -0.1786709 -0.55518484 0.2427028 -0.69768214 0.11532224
0.14529431 -0.3051984 -0.11919797 0.0689059 -0.34787774 0.25339362 0.6894021 -0.13540162
-0.5730295 -0.37802976 -0.39142105 0.1786091 0.5377246 -0.14815317 -0.006296131 -0.3351616
0.36318156 0.43298 -0.6567139 -1.2039847 0.46088234 1.1168991 -1.0752501 0.117634475
-0.47479755 0.27163413 -0.7623027 -1.0191569 0.44203013 0.9123 -0.82550526 0.21592762
-1.5064629 -0.63670516 -0.34963167 0.61532795 0.14049649 0.2281396 -0.925321 0.63602054
0.0018939364 0.268606 0.016700147 -0.54441255 -0.6545197 -0.14238179 1.0096171 -0.98659784
-0.5157407 0.054506946 -0.6587253 0.3912942 0.47402754 -0.28818655 -0.7145927 -0.3082444
-0.097328335 -0.040994007 0.0045123934 0.09671817 -0.10182579 0.06842682 -0.27019787 0.33377716
-1.3928031 0.71045095 -0.5412299 0.1654927 -1.1319371 0.02857897 0.3744674 -0.98863465
0.5142308 -0.57068026 0.20817229 0.2714038 0.28565696 -0.44793138 0.023682958 0.26842758

dense_9/bias:0 f4 [7]
00000000: 0965 8d3b fe5c cd3d dbe7 1b3e ae32 22be
00000010: a030 1e3f 5200 2bbf 09f1 5cbe
0.004315023 0.100275025 0.15225165 -0.15839645 0.61792946 -0.66797364 -0.21576323

dense_8/kernel:0 f4 [784, 128]
00000000: 8c63 74bd 8a91 7b3d 8153 0fbd d284 7abd
00000010: ee34 6a3d d8a7 833c 45e0 36bd a044 1e3d
00000020: 3e85 2bbd 80b7 c7bb 1d53 8ebd 1bc4 0fbd
00000030: 8849 babc 9ca7 a0bd 0016 f9ba c097 db3b
00000040: fe49 483d 1094 a03b 89b8 973d e533 933d
00000050: 0ca6 9abd 9094 d5bb c004 373b 5697 6dbd
00000060: 6df1 91bd 0025 183d 8ad6 5a3d 38f7 a13c
00000070: c0c0 31bd c4ab 23bd e883 40bc 2452 003d
00000080: 8139 923d a66c 45bd b7e5 9c3d 80d0 883c
00000090: 982b c53c 00ec 03ba 22f1 2a3d de2a 5d3d
000000a0: 3259 c4bc b4f2 8c3c 24ac 4cbd 5da5 a23d
000000b0: 96ac 213d 408d 6a3b 020d 3f3d d5a0 31bd
000000c0: 78ba 493c f0a1 13bc 2632 4f3d dff0 963d
000000d0: 30a9 2d3c 78ec a3bd f089 94bd 38a2 243d
000000e0: 4ec2 293d 42c5 653d ef3b 03bd f0dd 733c
000000f0: 1278 423d 6785 993d dab8 363d 80aa 51ba
00000100: 161c 413d c677 8abd 262d 2d3d f607 91bd
00000110: b297 393d 30e8 dcbb 6c0c f9bc 2e52 2b3d
00000120: 28c7 973c de89 2fbd 5823 2c3d 2476 2f3d
00000130: 5a98 54bd 3179 83bd 9001 333d 5acc 343d
00000140: c12a 2dbd cac7 6b3d d8be 9abd 1acd 1cbd
00000150: 4abb 433d b067 773c 18a1 93bc ec76 ca3c
00000160: 7486 31bd ddfe 853d 14cc 65bd 9c21 9dbd
00000170: 2068 2ebc 4632 4dbd 4695 f8bc df6c 863d
00000180: 00e9 8a3a 0032 c0bc f831 103d 2016 723b
00000190: 702e 713c 64fc 113d 1a44 493d 40b2 0dbd
000001a0: ba8a 353d e0a4 02bc 4c60 f3bc 40e8 ffba
000001b0: 83de 05bd cf1b 973d 0032 e13c b429 953c
000001c0: e273 563d 03b7 8a3d c7df 803d 38e0 61bc
000001d0: fc72 51bd 5861 91bd 180f 98bc 4e62 68bd
000001e0: 1ce5 a63c d7c6 24bd 70ac febb 1e8d 3d3d
000001f0: ee25 0dbd 4dd2 8f3d 8c8d 103d 36d2 393d
00000200: eff0 a5bd 6819 6dbc f616 6e3d 9a78 d1bc
00000210: 3eaf 213d 880b 253c 70e3 36bc bd36 0dbd
00000220: 0984 29bd a16e 07bd a2a1 3a3d 9879 9bbd
00000230: 0236 63bd aaa4 14bd 3854 ea3c 32f1 d8bc
00000240: 6c76 f43c 188c 0abc 6bd4 9fbd 788c 33bc
00000250: fcdf 833c 60ad 07bc da81 6c3d 6c5a fe3c
00000260: 0b1c 8b3d 888f 69bd f3e5 9fbd 30d6 c13c
00000270: 9ddc 23bd a2ca 5e3d 7ac1 6e3d d6a5 493d
00000280: 27d0 9cbd ea32 4f3d 4148 1ebd 7858 92bc
00000290: 5a6e 343d 4b46 9b3d ea6c 343d 3001 803b
000002a0: 5a4c 5fbd dcda 0c3d da48 ebbc 3a48 12bd
000002b0: e2cb 0dbd 8cf9 113d 8052 54bb 90f4 c2bb
000002c0: 8a96 56bd b4d9 cd3c 5797 80bd 7410 a53c
000002d0: 48a4 83bc 48fc 263d a745 0bbd 2ba1 883d
000002e0: f190 90bd c8f1 0b3c f8cb c4bc d043 7f3c
000002f0: e9d4 8e3d 665f 55bd b6ad 83bd b886 753c
00000300: f8de 01bc 8895 72bc d8f8 163d e621 733d
00000310: a02f c43c be5d 3e3d 78d8 4fbc 74ba 65bd
00000320: 105f 53bc 9c89 0c3d ff95 873d 089a 0abc
00000330: d2f4 9dbd c841 74bc b95c 8ebd 74bc e7bc
00000340: ca3b 98bd 13a0 98bd 004b ce3b c04d 7c3c
00000350: a01e ecbb 76e1 7a3d 8ac5 0ebd 01bd a33d
00000360: 8c01 c83c 7030 ac3b 92f9 c3bc af18 10bd
00000370: be3f 43bd 8029 923c a078 5fbb e4e4 203d
00000380: a22f 5ebd 7868 7abd 4ce9 eb3c 00a8 2e3a
00000390: 1ac3 1c3d 3530 78bd c625 6a3d 2852 c03c
000003a0: 2ebd 063d 6e1f 363d 8626 fabc 36b1 663d
000003b0: 62d2 373d 2091 c2bb 33e9 8ebd 9bf1 983d
000003c0: 419d 9abd c27b 77bd 082a 423c 483d 85bd
000003d0: 65a8 26bd 6b68 58bd 02f3 53bd 132b 2cbd
000003e0: 508d 6ebc 604c 33bc e78f 873d 3120 983d
000003f0: d07d b63b c0fe 57bb 1125 3dbd 48a1 fdbc
-0.059665248 0.061418094 -0.034991745 -0.061161824 0.057179384 0.016071245 -0.044647474 0.038639665
-0.041875117 -0.006094873 -0.06949446 -0.03509913 -0.02274014 -0.07844469 -0.0019003749 0.0067014396
0.04889869 0.004900463 0.07408244 0.071876325 -0.07551202 -0.006517954 0.0027926415 -0.058005653
-0.071261264 0.03714466 0.053427257 0.019771203 -0.04339671 -0.03995873 -0.011750199 0.031328335
0.07139874 -0.04819932 0.07661002 0.016700983 0.024068639 -0.000503242 0.04173387 0.05399596
-0.023968313 0.017205574 -0.049968854 0.07941697 0.03947123 0.0035789758 0.046643265 -0.043366272
0.012312524 -0.009010777 0.050584935 0.07370161 0.0105994195 -0.08004087 -0.07252872 0.040193766
0.04144507 0.056096323 -0.03203958 0.014884457 0.04747779 0.074961476 0.044609882 -0.0007998124
0.047145925 -0.06761126 0.042279385 -0.070815966 0.045310684 -0.006741546 -0.030401431 0.04182642
0.018527582 -0.04285609 0.042025894 0.042837277 -0.051903106 -0.064196 0.043702662 0.044140197
-0.0422771 0.05756358 -0.07555932 -0.038281538 0.047786035 0.015100405 -0.018021151 0.02471491
-0.043341115 0.06542752 -0.056102827 -0.07672426 -0.0106449425 -0.050096773 -0.030344617 0.06563734
0.0010598004 -0.023461342 0.035203904 0.0036939457 0.014720544 0.03564109 0.049137212 -0.03459382
0.044321753 -0.00797388 -0.029709004 -0.0019524172 -0.032682907 0.07378351 0.027489662 0.018208362
0.05235661 0.06773188 0.06292682 -0.013786368 -0.05113505 -0.07098645 -0.018561885 -0.056734376
0.02037292 -0.04022869 -0.007772021 0.046277158 -0.03446 0.070225336 0.03529124 0.04536649
-0.08102595 -0.014471389 0.058127366 -0.025570203 0.039473765 0.01007355 -0.011162624 -0.03447603
-0.041385684 -0.03306449 0.0455643 -0.075915515 -0.055471428 -0.03628985 0.028604612 -0.026482198
0.029841624 -0.0084562525 -0.078041874 -0.010958783 0.016098015 -0.008281082 0.057741024 0.031048976
0.06792458 -0.057021648 -0.07807531 0.023661703 -0.040005315 0.054392464 0.058289982 0.04923042
-0.076568894 0.050585665 -0.038643125 -0.01786445 0.044050552 0.07581767 0.04404918 0.0039063916
-0.054516174 0.034388408 -0.028721262 -0.035713412 -0.034618266 0.035638377 -0.0032397807 -0.0059495643
-0.05238966 0.025128223 -0.06278866 0.020149447 -0.016069546 0.040767938 -0.034001973 0.06671365
-0.070588954 0.008541532 -0.024023041 0.015580133 0.06974203 -0.052092932 -0.06429617 0.014985733
-0.007926695 -0.014806159 0.03685841 0.0593585 0.02394849 0.04647612 -0.0126858875 -0.05608602
-0.012901083 0.034310922 0.06620406 -0.0084595755 -0.077127114 -0.014908262 -0.06951279 -0.028288104
-0.07433279 -0.07452407 0.006295562 0.015399396 -0.007205799 0.061250173 -0.034856357 0.07995034
0.0244148 0.0052547976 -0.023922715 -0.03517979 -0.04766821 0.017842054 -0.0034098998 0.039280787
-0.054244645 -0.061134785 0.028797768 0.0006662607 0.038272 -0.06059285 0.05716493 0.023476675
0.03289526 0.044463567 -0.030535948 0.056321345 0.04487837 -0.0059377104 -0.06978073 0.074679576
-0.07549525 -0.06042076 0.011850841 -0.06505829 -0.040687937 -0.052833956 -0.051745422 -0.042033266
-0.014560059 -0.010943502 0.06619244 0.07428015 0.0055691972 -0.003295824 -0.046177927 -0.030960694

dense_8/bias:0 f4 [128]
00000000: 0bab 4f3f a9f5 a0be 6a96 b53d 7e97 88be
00000010: 122f 9c3e 8c73 3b3e 7017 1f3e 075b c1be
00000020: 932a 923e 3def b73e e8a7 37bd 7c1c 923c
00000030: 7e00 c43e 267b cb3e d090 ecbd 2e80 883c
00000040: 38fe 67bc 70ac bc3e 13f6 7b3e 9bbf 8d3d
00000050: faea 9bbe d707 b23e 3267 fe3d 010e 9e3e
00000060: 85a2 f9bd 721e 9bbd 692a 92be bc08 8d3e
00000070: 8bd4 6c3e 6c46 dc3e 959a 643d b2c7 753e
00000080: f144 813e 812c 3dbe 729e 863d a494 dd3d
00000090: ef30 d13e fd06 553e af33 473d 790f c93d
000000a0: 3fcc a23c e892 333f b94f bcbd 4d74 adbd
000000b0: ae7b 46be 62f0 d8be e9bc 053e fee9 043d
000000c0: a771 a03e 23e7 abbe 721d 1d3f a13b c13e
000000d0: d34b 9d3d e062 2d3f 6c04 a7bd a98b 873d
000000e0: 9f04 723e d991 763d 5852 3a3e cf73 0abe
000000f0: 0937 e3be 9af2 fdbe bae4 b73e f440 b63e
00000100: 0804 9a3e e257 6f3e 612b 703e cfff 3f3f
00000110: 125c cbbd 5874 bb3e e8bf f1bd 5c6d be3d
00000120: cb25 b13e c029 ee3e bf99 df3d 8e6e 3ebe
00000130: f305 c6bd 51b4 37bd 62c3 523d 97e5 ca3e
00000140: a4b6 a0bd d6c0 ed3d 6cab cf3e 0e19 44be
00000150: e2b4 7abc 74be 5abd 3f86 eebd a5e4 053e
00000160: 79f3 57be ec41 233e 6a04 68be b18d 71bd
00000170: 2742 473f 83c0 433d 7840 02be 55a7 1dbf
00000180: 613e 08bb b589 183f 3843 f73e ba16 84ba
00000190: 5b3a b8bd 7a14 b73d 314b 243d 8a19 353c
000001a0: 1310 46be aa5b 223e 0465 47bd d298 c7be
000001b0: 6e7b 95be 5593 073e 2acc 113f 24da 863e
000001c0: 742d a8be 2381 343d b91f 5f3e c635 143e
000001d0: 2daf 3f3e 9f6a 6c3e ac42 93bd 5be4 2a3d
000001e0: e7df 6ebe db59 f53c 8e72 0d3d dc39 e63e
000001f0: a23c 02be 67b5 70bd 80e6 dcbd ce75 c23e
0.81120366 -0.31437424 0.0886658 -0.2667808 0.30504662 0.18305796 0.15536284 -0.3776476
0.28548107 0.35924712 -0.044837862 0.017835848 0.38281626 0.39742392 -0.11551058 0.016662683
-0.014159732 0.3685031 0.24605589 0.069213115 -0.3045271 0.34771606 0.12422027 0.3087006
-0.12189201 -0.07574166 -0.2854798 0.27545726 0.23127954 0.43022478 0.055811483 0.24001959
0.2524791 -0.18474008 0.0657319 0.108193666 0.40857646 0.20803447 0.048633274 0.09817404
0.019872783 0.70146036 -0.091948934 -0.08469448 -0.19383118 -0.42370898 0.13060345 0.032449715
0.3133671 -0.3357478 0.61373055 0.37740806 0.07680478 0.67728996 -0.0815514 0.06618435
0.23634575 0.060197685 0.18195474 -0.1352074 -0.44377926 -0.49599153 0.35916692 0.3559643
0.300812 0.23373368 0.23454048 0.7499971 -0.099296704 0.366122 -0.11804181 0.092982024
0.34599146 0.46516228 0.109179966 -0.18596861 -0.096691035 -0.044849698 0.051455863 0.39628288
-0.07847336 0.11609046 0.40560472 -0.19150183 -0.015301915 -0.053404287 -0.11646699 0.13075502
-0.21088971 0.15943116 -0.22657934 -0.058973018 0.77835315 0.047791015 -0.12719905 -0.61583453
-0.0020789134 0.59585124 0.4829347 -0.0010077574 -0.089955054 0.089394525 0.04011077 0.011053452
-0.1934207 0.1585528 -0.04868032 -0.3898378 -0.29195732 0.13239796 0.56952155 0.26338303
-0.32847178 0.044068467 0.21789445 0.14473638 0.18719168 0.23087548 -0.07190451 0.041721683
-0.233276 0.029950073 0.034533076 0.44966018 -0.12718442 -0.05876675 -0.10786152 0.37980503
