Assets/Neural/shapeClassConv.onnx (onnx, 374573 bytes, 10 tensors)

dense_1/kernel:0 f4 [64, 7]
000000 ec 4b cf bc da 72 55 3e 38 6d 41 bd 00 d2 7e 3d
       -0.025304757 0.20844594 -0.0472233 0.06221199
000010 55 ba 9c bd 34 01 ad 3d 0a 1e bf bd f5 70 93 3d
       -0.076527275 0.08447495 -0.09331901 0.07199279
000020 ef 0c b3 3e d3 97 fd be b7 79 34 be 8d cb 9a be
       0.34970805 -0.49529895 -0.17624556 -0.30233422
000030 05 5a 94 3e c7 e5 ab be 69 7f 81 3e 8c 31 df 3d
       0.2897493 -0.33573744 0.2529252 0.10898122
000040 71 97 a3 3e 1e d5 ed bd ab 40 4d 3e ee 52 8e be
       0.31951478 -0.116129145 0.200442 -0.27797645
000050 7c 06 07 bf 70 fa 39 bd b3 0b ac be 4e 27 3f bd
       -0.5274427 -0.04540485 -0.33602676 -0.046668343
000060 ba 98 50 3e bd 71 48 3e 86 a5 45 be 8c 72 1f 3e
       0.2037076 0.19574638 -0.19301423 0.1557104
000070 a2 51 ab 3e 60 5d ad 3e af be 85 3e c3 65 b3 3d
       0.33460718 0.33860302 0.26122043 0.08759644
000080 a1 81 87 be 39 21 1f bf 63 23 ac 3d 47 aa f7 be
       -0.26466087 -0.6216007 0.08405187 -0.483721
000090 b5 c7 d8 be 70 03 97 be f4 bf bb be a6 ed 46 bd
       -0.42339864 -0.2949481 -0.36669886 -0.048566483
0000a0 2d c2 7b 3e ad c3 e4 3e 01 b2 1f be e4 2f de be
       0.24585791 0.4468054 -0.15595247 -0.43395913
0000b0 a4 c5 c5 3e bb a9 8c 3d 0e 48 db 3c 36 d8 a2 be
       0.3862735 0.06868311 0.026767757 -0.3180558
0000c0 79 11 a6 bd 23 15 c4 3d 14 9d 55 3d 2c 84 d5 bd
       -0.081088014 0.09574344 0.052151754 -0.104256004
0000d0 b0 55 1b be df d0 8d be e2 85 44 3e e1 34 5f 3e
       -0.15169406 -0.27698418 0.19191697 0.21797515
0000e0 d6 b2 c7 bd 93 50 c4 3e 7d 60 b2 be d3 e0 bc be
       -0.09750907 0.38342723 -0.3483924 -0.36890277
0000f0 48 47 9a bd 5f e3 bc 3d 59 0e 36 be 8a cf 10 3e
       -0.07533127 0.09223055 -0.1777891 0.1414167
000100 cc 97 b4 be b4 90 99 be fc c3 d7 be 4e c4 ae bc
       -0.35272062 -0.29993212 -0.42141712 -0.02133384
000110 19 4c 77 be cb 25 33 3e 9f e2 e5 bd b0 ba 98 3e
       -0.24150123 0.17494886 -0.11224865 0.2982993
000120 7b 3c 19 3e 71 85 96 3e 05 e2 0b 3e 0a 91 ca 3e
       0.14964478 0.29398683 0.13660438 0.3956378
000130 ad e8 a2 be 30 dc 7c be a8 12 2a 3e e4 5f 2f bd
       -0.31818143 -0.2469337 0.1660868 -0.042816058
000140 17 7c e0 be 99 48 67 3e 6d c1 50 3e 68 a2 15 bf
       -0.43844673 0.22586288 0.20386286 -0.5845094
000150 61 62 83 3d c6 a9 a2 3e 07 9c 72 3e 33 3f e8 be
       0.06415249 0.31770152 0.23692332 -0.45360717
000160 a6 6a 72 3e 37 f7 c9 3d 78 99 dd be ba 18 42 3d
       0.23673496 0.098616056 -0.4328115 0.047386862
000170 1d b8 78 3e 6a 56 54 3e 7f a1 6b 3e 7e 7c c8 be
       0.24288984 0.2073609 0.23010825 -0.3915748
000180 6c b4 a4 be 46 f0 3f be e3 b6 c2 be 9a 74 cf be
       -0.321689 -0.18744001 -0.38030156 -0.40518647
000190 ec d4 bd 3e 5d 25 02 3c 91 18 f8 3d 57 56 d8 be
       0.3707651 0.007943478 0.12114061 -0.42253372
0001a0 0e bb 9f be 14 3a 73 3d 7f 6f fd bd 5e f1 12 bf
       -0.311974 0.05938156 -0.12374782 -0.5739955
0001b0 f9 26 a6 3e 44 ef aa be a5 f1 b0 3d 3b 31 f8 be
       0.3245161 -0.3338567 0.0863984 -0.4847506
0001c0 69 43 de 3e 82 18 90 3e 73 19 a3 3e bf ba bb 3d
       0.43410805 0.28143698 0.31855354 0.09166478
0001d0 9f 55 3a bf c8 e5 f7 be c0 f5 ac 3d 59 93 0d bf
       -0.727869 -0.48417497 0.084453106 -0.5530296
0001e0 66 6b 91 be 9b 1f b5 be cd 94 7b 3e 15 0d a4 3e
       -0.2840225 -0.35375676 0.24568482 0.3204123
0001f0 7b d5 f8 be 5a 9f 30 3e d6 a1 2c bf 7c 22 29 3e
       -0.48600373 0.17248288 -0.6743444 0.16517061
000200 84 15 16 be ad 2f 4d bc 3f 6c 7a 3e 46 37 80 3e
       -0.14656645 -0.012523574 0.24455355 0.2504217
000210 a0 a0 18 bf 14 44 94 3e 94 fb f1 be f6 6f 28 bf
       -0.59620094 0.2895819 -0.4726225 -0.6579584
000220 ab 62 78 3e 19 18 28 be de 84 b2 be cb d9 ee be
       0.24256389 -0.16415443 -0.34866995 -0.46650538
000230 92 32 80 3e 73 df c2 be 3c ff 9f 3e 4b 76 08 bf
       0.25038582 -0.38061103 0.31249416 -0.533055
000240 db 4f 29 bf 88 9a d5 be d7 77 9a 3c 8b 3e 00 be
       -0.66137475 -0.4171946 0.018855972 -0.12523858
000250 07 1d 06 bf 51 76 0b bf 46 69 e0 be ba 5a 6a 3e
       -0.5238804 -0.5447741 -0.43830317 0.22886172
000260 b4 f1 0a 3e 76 2f ba 3e 26 d7 e3 be b3 5f f1 be
       0.13568765 0.36364335 -0.44500083 -0.47143325
000270 60 dd 92 be 02 8d fe bd f2 44 a2 3e d1 5d af bd
       -0.2868452 -0.12429239 0.31693226 -0.08562816
000280 19 09 b2 be a2 2b 80 be d5 9c 02 bf 82 ec 04 3f
       -0.34772566 -0.2503329 -0.51020557 0.5192338
000290 3a db 6e 3e 37 47 42 3e 5a 2c 9f bc 14 57 d0 be
       0.23325816 0.18972479 -0.019430328 -0.40691435
0002a0 33 76 ee 3d 50 b6 f0 be 8e 24 2a 3d f9 6a c8 be
       0.116436385 -0.47014093 0.041538768 -0.39144114
0002b0 42 54 38 bc 7b 8c 63 3e c4 da f0 bd 31 9f f7 be
       -0.011250557 0.22221558 -0.11760476 -0.4836364
0002c0 f5 2f 0b be a0 cc 50 3e 05 94 9f be ff 2d e3 3d
       -0.13592513 0.20390558 -0.31167617 0.110927574
0002d0 60 db 51 3e e7 57 85 bb 68 a5 1d bf fa 34 2b 3c
       0.20493841 -0.0040693167 -0.61580515 0.010449642
0002e0 61 2b 05 3e 05 bb 2a be 27 cb f2 3e 5b c1 13 3d
       0.13004829 -0.16672905 0.47420618 0.03607307
0002f0 dd 5e 26 be d3 f9 db 3d fb 2a 2f 3e 09 df a3 bd
       -0.16247125 0.107410096 0.1710624 -0.08001525
000300 31 0b ba 3d 20 11 c9 be f9 86 b1 3d d7 6a aa bd
       0.09084166 -0.39270878 0.08668322 -0.08321159
000310 64 c6 92 be 65 e2 40 3e d5 ad f7 bd ce 5e 15 be
       -0.28666985 0.18836363 -0.12093703 -0.14586946
000320 10 1e 12 be fa 73 01 be 0a 90 6a 3e 2f dd d4 3e
       -0.1426928 -0.12641898 0.22906509 0.41575
000330 c3 1e 09 3e c0 6c f8 3d 37 77 13 bf 40 35 8f 3e
       0.13390641 0.121301174 -0.5760378 0.27970314
000340 19 8f e2 be ec a7 89 be 06 fd 1a 3e 5e eb 79 be
       -0.442498 -0.26885927 0.15135583 -0.24406192
000350 35 88 f7 3c b9 81 e0 bd 23 ea 2b be 97 58 8b be
       0.030216316 -0.10962243 -0.16788535 -0.27216026
000360 1b df 0e 3d 98 b3 d4 bc 9b fa 87 bd 9c 29 3b 3c
       0.03488074 -0.025964543 -0.06639596 0.011423495
000370 02 53 26 bf 6a 53 0a 3d 82 52 95 be 3e 21 8a 3e
       -0.6497041 0.033770956 -0.2916451 0.26978487
000380 e7 dc f8 3d 3c 35 01 bf 54 12 bf be 69 59 15 3e
       0.12151509 -0.50471854 -0.3731867 0.14584889
000390 0f 35 11 3e 48 b4 eb 3d 83 d2 db bd ba 0c 86 3e
       0.14180396 0.11508995 -0.10733511 0.26181585
0003a0 5e 1a 8a 3e 23 65 ba bc ab df eb be be e5 e7 be
       0.26973242 -0.022753304 -0.46069083 -0.45292467
0003b0 f7 b2 7f 3e d5 b3 c9 be da 52 86 3e 6f 08 35 bf
       0.24970613 -0.39395013 0.26235086 -0.70715994
0003c0 81 bf 4e be 93 52 b7 be 01 0d 95 3e 3b 84 2e bf
       -0.2019024 -0.35805187 0.29111484 -0.6817052
0003d0 99 30 0c 3e d4 68 b5 bd e0 56 ba 3e b7 f2 85 3e
       0.13690414 -0.08857885 0.36394405 0.2616174
0003e0 0d 71 13 bd 16 98 05 be 06 72 02 bf 6a 82 ea 3e
       -0.035996486 -0.13046297 -0.50955236 0.45802623
0003f0 d3 c8 26 bf 78 e0 55 3e 2c a4 57 3c 26 08 54 3e
       -0.65150183 0.2088641 0.0131617 0.20706233

dense_1/bias:0 f4 [7]
000000 5b 31 83 bd 1f 03 8d bd c3 bf eb bd a4 e3 21 3e
       -0.06405898 -0.06885361 -0.11511185 0.15809494
000010 fd 35 37 3e 0e 72 11 be db aa 9a bd
       0.17891689 -0.14203665 -0.07552119

dense/kernel:0 f4 [576, 64]
000000 f8 a7 84 bd 81 7b 99 3e 35 f1 71 bd a8 01 16 be
       -0.0647735 0.29977039 -0.059067924 -0.1464907
000010 c3 60 64 3d d0 76 b4 3e 8f cb 0a bd 92 d8 3c bc
       0.05575634 0.35246897 -0.033885535 -0.011526244
000020 ae d8 8f 3d dd 30 1e bf f5 57 fa 3d 51 09 fc bd
       0.0702375 -0.6179331 0.12223808 -0.123064645
000030 ef 5c 8f bd d1 4a 79 bc 83 f4 5f bd d3 71 b1 3e
       -0.070001476 -0.0152155915 -0.054676544 0.34657153
000040 c8 8c d9 be a0 95 84 be 7a ac 3a be 08 85 3d be
       -0.4249022 -0.25895405 -0.18229857 -0.18507779
000050 a1 44 3e be 86 10 48 3d a3 e4 a2 be 3b e0 f0 3d
       -0.18580867 0.048843883 -0.3181506 0.117615186
000060 9d f7 eb 3d 1c 35 54 3b 59 c6 41 be 51 74 08 bc
       0.11521838 0.0032380288 -0.1892332 -0.008328513
000070 8f 7d c5 bd 85 d0 96 be d7 22 68 3c 3c 3f 91 be
       -0.09643089 -0.29455963 0.014168463 -0.28368556
000080 fd ad 29 bd 3f fa e8 3b d1 10 29 be 60 88 38 3d
       -0.041425694 0.00710991 -0.16510321 0.045051932
000090 c1 d5 0e 3d fb 02 bb bc 1b 27 a8 bd 07 6c c9 3d
       0.03487182 -0.02282857 -0.08210584 0.09835058
0000a0 ca 2f 46 3e 61 e4 af 3e cd 71 63 3e 00 c1 40 be
       0.19354168 0.34353927 0.2221138 -0.18823624
0000b0 61 45 5e 3d 47 64 83 bd de 79 61 be 35 93 4a be
       0.054265384 -0.06415611 -0.22019145 -0.19782718
0000c0 a1 c4 4b 3d 16 d3 aa bc b3 5b f0 bd 28 7f 1b bf
       0.049748067 -0.020852607 -0.1173624 -0.607409
0000d0 ea c5 26 be 22 9a bc 3d 4d 7c 7e be 58 60 1e be
       -0.16286436 0.09209086 -0.24852104 -0.1546644
0000e0 a6 40 fb bc 8e 6b 97 3d d5 b2 4d 3d 19 75 e9 bd
       -0.030670475 0.07393561 0.050219376 -0.11399288
0000f0 72 38 8c be 08 80 48 3e 1c 4e 45 be 2f 3e 58 bd
       -0.27386814 0.1958009 -0.19268078 -0.052793678
000100 49 9d 89 bc 3f 5b 73 be c3 a0 47 3e ce 2f 92 bd
       -0.016798632 -0.23765276 0.1949492 -0.07138024
000110 d5 24 0c 3d 72 80 30 be e0 de 2e 3e 06 37 20 be
       0.034214813 -0.17236498 0.17077208 -0.1564599
000120 73 08 af be 45 c0 5a be b2 59 26 bd 75 5c 3f be
       -0.34186134 -0.21362408 -0.040612884 -0.18687613
000130 31 19 f9 3d 4f 10 4e bd 7f 22 bb bc 22 fc fe bd
       0.12163008 -0.05030852 -0.022843597 -0.12450434
000140 5c c1 d6 3d dd 75 88 be df a1 27 bd de ce 47 be
       0.10486099 -0.26652423 -0.040925857 -0.19512507
000150 eb ba 2e 3e 46 83 32 3e ad c9 85 3d 97 e5 ca bd
       0.17063491 0.1743289 0.06532607 -0.09907072
000160 c7 48 d9 bd 44 6b cb 3e 99 df 46 3e 24 78 6c bd
       -0.10609584 0.39730275 0.19421233 -0.057731763
000170 d1 d8 60 bd dc ef 06 be 12 81 e3 bd 1a ea 6d 3e
       -0.054894272 -0.13177437 -0.111086026 0.23233834
000180 cc 0c 07 be 9a 26 1a be ad 5f 5d 3d 52 5c 0a 3e
       -0.13188475 -0.15053788 0.05404632 0.1351178
000190 ac 30 9e bc 42 16 11 bd 79 84 1c be 51 62 15 3d
       -0.019310318 -0.035421617 -0.1528491 0.036470715
0001a0 2b 97 37 3d bf 4d 25 3e 42 5e 0c 3e fd 21 30 3e
       0.0448219 0.16142939 0.13707832 0.17200466
0001b0 25 93 ed bd e5 d7 63 be 17 61 ca 3d 6b e7 ac 3c
       -0.11600331 -0.22250326 0.098818 0.021106442
0001c0 ae 27 43 3d 7f 53 5c 3d 8e fc 94 be 82 ed 09 3f
       0.047645263 0.053790566 -0.29098934 0.53878033
0001d0 1a 29 be 3d 94 76 c0 bd 3a f0 21 3e 43 61 a3 3d
       0.09285183 -0.09397617 0.15814295 0.079775356
0001e0 da 7d e2 bd 51 2f 56 3c 7d 37 67 3d 31 da c8 bd
       -0.110591605 0.013072805 0.056449402 -0.09807242
0001f0 6f 3b ba be 6d 07 ac be 74 73 36 3e 15 87 69 3b
       -0.3637347 -0.33599415 0.1781748 0.0035633494
000200 2d 63 68 3d a5 c1 71 be d4 e3 8a be 0a c3 eb bd
       0.056735206 -0.23609026 -0.27126944 -0.1151181
000210 a0 18 c4 bc 2f 64 20 be 55 8f 8a bd 1c 9a c6 bd
       -0.023937523 -0.15663217 -0.0676562 -0.09697363
000220 f3 0e 4e bf 93 db 1f be c9 0c 23 be 5f 77 a3 bd
       -0.8049156 -0.15611105 -0.15922846 -0.079817526
000230 0a 49 a8 3d ca 08 53 3e a7 7e d5 be 2e 54 49 bd
       0.08217056 0.20608822 -0.4169819 -0.049152546
000240 3b 5e 0c bb 30 ae 8f bc cf f7 3d be f3 45 0d 3d
       -0.002141847 -0.017539114 -0.18551563 0.034490537
000250 60 dc 46 be d8 ec c2 bd cd ef fb 3d 04 59 7e 3d
       -0.19420004 -0.095178306 0.12301598 0.06209661
000260 6a da 01 be 0b 21 32 bc 29 6e 87 be ba 9a 64 3d
       -0.12680975 -0.010872136 -0.26451233 0.05581162
000270 97 fb c9 bd 3e 25 9f be 64 9d 4a bc c3 75 42 bc
       -0.0986244 -0.310831 -0.012366626 -0.011868897
000280 44 ee db 3d d5 81 50 be 8f 79 83 bd bd 26 80 3e
       0.10738805 -0.20362027 -0.0641967 0.25029555
000290 29 a5 79 3e 54 3c a4 bd 58 35 18 bf 44 4c 95 be
       0.2437941 -0.08019319 -0.59456396 -0.2915975
0002a0 f7 b7 1f 3d 24 73 f6 3d 97 da c2 be 80 06 b6 bd
       0.038993802 0.1203368 -0.38057396 -0.088879585
0002b0 35 97 4d bd 6b c7 1e be ab 37 fd bd c9 77 97 3c
       -0.05019303 -0.1550576 -0.123641334 0.018489735
0002c0 76 3a de 3d 22 95 61 bd 71 76 e6 3d 7c 50 0b 3e
       0.10850994 -0.055073865 0.1125306 0.13604921
0002d0 1e a8 4f 3d 40 44 d8 3d e7 6c 10 be ea a1 9d 3c
       0.05069744 0.10559893 -0.14104043 0.019242246
0002e0 6e 3c de 3c a0 3f dc bd 73 97 39 3e 7b 5c 60 3d
       0.027128424 -0.10754323 0.1812418 0.054775696
0002f0 ac 48 21 be af 45 c8 3d 7f a7 bb 3d e1 31 8c be
       -0.15750378 0.09778916 0.09162807 -0.27381805
000300 e8 ec 95 bd b5 49 6b 3d 06 2f 64 3d d8 c2 ef bd
       -0.07320577 0.05744334 0.055708908 -0.11707085
000310 04 c3 80 3d 34 49 89 bc 4d 6e 4b 3e 14 c8 f9 bd
       0.06287196 -0.016758539 0.19866295 -0.12196365
000320 7a e5 3c be b3 2f bb 3d fe d7 82 be 95 75 4d be
       -0.18446913 0.09139957 -0.25555414 -0.20064385
000330 fc a4 c6 3d 1c 2e 0e 3e 98 68 42 be 56 5e 8a 3e
       0.09699437 0.13884777 -0.18985212 0.27025098
000340 7b 0a 28 be b4 3c 89 3d b8 7f d0 3d 46 11 18 be
       -0.16410248 0.06701031 0.101806104 -0.1485034
000350 d5 c2 72 3e e4 26 d6 be 49 75 81 be f3 de 95 3e
       0.23707135 -0.41826546 -0.25284794 0.2927166
000360 6c 2a 5a 3d 27 06 4f 3e 17 ba 99 be e9 06 46 3e
       0.053263113 0.2021719 -0.30024788 0.19338574
000370 74 95 fa bc c2 da 9c be bf 85 09 bd b1 80 ca be
       -0.030588843 -0.3063565 -0.033574816 -0.3955131
000380 53 2e 23 3d 80 bb b4 3d d3 0e 25 bd cc 12 c3 bd
       0.0398391 0.08824825 -0.04029734 -0.095250696
000390 c9 d5 0b be e4 fa b6 3d d5 38 9f 3d 94 a2 21 be
       -0.13655771 0.08934572 0.07774512 -0.15784675
0003a0 e3 c3 34 3e 2c f9 14 3e b6 49 b7 3c c2 d5 7f bd
       0.1765285 0.14548177 0.022374015 -0.062459715
0003b0 74 16 59 3d 8e 6e 05 be ef 78 a3 be 46 22 52 be
       0.05299993 -0.13030455 -0.31928203 -0.20520887
0003c0 8d aa ab 3d d9 0c ec 3d 1c 08 6d 3c 2f 03 b6 be
       0.08382139 0.11525888 0.014467265 -0.35549304
0003d0 48 b3 fe bc f1 ef d4 3d f5 25 29 3e 6b 2e ca bd
       -0.031091347 0.10397328 0.16518386 -0.09872135
0003e0 d5 f1 99 3c 5b 38 0a be e0 36 81 3e 2c 5c 1a be
       0.018792072 -0.1349806 0.2523718 -0.15074223
0003f0 49 f4 a1 be 03 65 1c 3e d8 1a 05 3c 99 96 26 3e
       -0.31631687 0.15272908 0.008124076 0.16268386

dense/bias:0 f4 [64]
000000 2d 80 2a bd bf 58 3c be 3a 08 51 be 59 b4 65 bd
       -0.041626144 -0.18393229 -0.20413294 -0.056080196
000010 49 15 84 bd 0e 26 12 bd b1 c3 9f bd a0 4a 52 be
       -0.06449372 -0.035680823 -0.07800997 -0.2053628
000020 b7 26 68 be c7 7d a1 3d ea e7 5b be a8 58 a0 bd
       -0.22671019 0.07885318 -0.21475187 -0.0782941
000030 af fb 46 be 39 f3 06 be dd 1d 2b 3e 75 8f 13 be
       -0.19431947 -0.1317872 0.1671061 -0.14410193
000040 d0 fe a7 bd 8d c4 03 3e 75 c6 05 3e da 9b 34 be
       -0.082028985 0.12867947 0.13063987 -0.17637578
000050 ea b5 fc bd 12 cc 93 bd 59 ed 07 be 8a cf e5 3d
       -0.12339385 -0.07216658 -0.13274135 0.112212256
000060 45 e3 c6 be a9 69 fe bc 08 ec 90 3d bb 93 49 be
       -0.38845268 -0.031056242 0.070762694 -0.19685261
000070 e0 f3 55 bd b7 95 a6 bd 4c b5 35 bd 57 24 5d 3e
       -0.05223453 -0.081340246 -0.04436235 0.21595894
000080 58 70 ca bb 86 b1 af be 17 29 93 be 3e f2 fc bd
       -0.006177943 -0.34315127 -0.28742287 -0.123508915
000090 69 a3 2d bd 69 6b 64 bd ac 7e 56 be 7a 76 ea bd
       -0.04239217 -0.055766497 -0.20946759 -0.11448379
0000a0 cf 77 f8 bd 46 9c e0 3c 5c 86 8f be 10 d5 00 3e
       -0.12132227 0.027418267 -0.28032196 0.12581277
0000b0 29 27 95 bd e9 34 0f be 26 e4 1b 3e 72 73 39 be
       -0.0728286 -0.13985027 0.1522375 -0.18110445
0000c0 fd c8 39 be 0d 7f 0f 3e 3a d6 1b bc 11 31 07 be
       -0.18143077 0.1401331 -0.009511525 -0.13202311
0000d0 54 26 5d bd 9d e1 5b be 8f 0a de 3d 0b 67 2b be
       -0.05399163 -0.21472783 0.10841858 -0.16738527
0000e0 6f 1a 9d 3c fe 10 29 be c6 b1 06 be cc ea 07 be
       0.019177644 -0.16510388 -0.13153753 -0.13273162
0000f0 47 e8 06 be ed 33 0e be f2 96 d3 3d 1d 03 ac be
       -0.13174544 -0.13886996 0.10331525 -0.33596125

conv2d_2/kernel:0 f4 [64, 64, 3, 3]
000000 a4 e5 1a be 4b c6 ba 3d b3 41 f5 3e 48 15 86 3d
       -0.15126663 0.09119853 0.47901687 0.06547028
000010 22 81 33 3e 00 df 1d 3e 13 37 81 be 1c 7b b1 bd
       0.17529729 0.15417099 -0.2523733 -0.086660594
000020 30 b9 ca bc 70 8b 40 3c b9 f7 b4 3d 44 cb e6 3d
       -0.024746507 0.0117519945 0.08836312 0.112692386
000030 df 40 01 be 49 d0 a4 be 73 83 14 bf f7 51 16 bf
       -0.12622403 -0.3219016 -0.58013076 -0.5871882
000040 d3 05 a4 bd 76 31 8c 3e 5c 6c 76 be db 7a 83 bc
       -0.080089234 0.27381486 -0.24064773 -0.016049793
000050 7a 4f a8 bd bb 58 74 be 6a 5d 35 3d cf 6e c8 bd
       -0.08218284 -0.23861973 0.04427854 -0.0978676
000060 54 8e 30 be 5e f3 66 3e 09 36 d3 3e 67 dd 22 be
       -0.17241794 0.22553775 0.41252163 -0.15904771
000070 ef 52 28 bf 98 0a b5 3d 13 a9 09 3e df 0e 04 bf
       -0.65751547 0.08839911 0.13443403 -0.5158519
000080 09 23 90 bd 79 df e9 3e da e1 0e bf 5c 82 8b be
       -0.070379324 0.4567831 -0.5581337 -0.27247894
000090 9b 46 e7 be 67 8a 9a bd fe 8c b1 b9 78 c3 41 be
       -0.45171055 -0.075459294 -0.00033865118 -0.18922222
0000a0 f7 a5 ff be 1a b9 93 be ea 3e f2 be c6 96 41 3d
       -0.4993131 -0.2885216 -0.47313625 0.04726293
0000b0 67 16 d9 be 2f 6b 1f 3d 12 09 ba bd 10 fc e7 bc
       -0.42399904 0.038920578 -0.09083761 -0.028318435
0000c0 97 9b a5 3c 3f d8 1a 3e 73 90 50 3e 9f 9d cb 3d
       0.020215793 0.15121554 0.20367603 0.09942173
0000d0 23 16 24 3e b8 eb 59 3e e1 70 03 be 25 98 22 be
       0.1602407 0.21281326 -0.12836029 -0.15878351
0000e0 78 3b 44 3c 28 9b 32 bd 33 49 2c 3e b0 6c ea 3d
       0.011977069 -0.043605 0.16824798 0.11446512
0000f0 d5 d6 76 be c2 80 4f 3e 06 ef 94 3e d0 2b 44 3a
       -0.2410539 0.20263961 0.2908861 0.0007483335
000100 03 96 01 be 3d f4 42 3e 5b 49 e5 3c 7d 74 18 be
       -0.12654881 0.19038482 0.02798908 -0.14888187
000110 7f 99 4a 3e 10 30 75 be a9 2f 6a bd 4e 27 81 be
       0.19785117 -0.23944116 -0.05717436 -0.252253
000120 2e 05 77 be 24 36 b9 be b4 6d 6d bd 8b c4 48 bd
       -0.2412307 -0.3617412 -0.05796595 -0.049015563
000130 0a a0 03 be 44 0b 94 bc 21 a7 c9 be 9d 37 11 bf
       -0.12854019 -0.018071778 -0.39385322 -0.56725484
000140 45 8f 55 3e b5 66 8b bd 81 aa 7d bd fe aa 57 3d
       0.20855434 -0.06806699 -0.061930183 0.052653305
000150 0b 39 d8 3b 13 b3 b3 3c da 17 8e be 45 9f b1 3b
       0.006598597 0.021935975 -0.27752572 0.0054205977
000160 0d ad 46 3e a4 8d 07 3e 46 2f 1f 3e c8 18 88 3d
       0.19401951 0.13237625 0.15545377 0.06645352
000170 57 df 7e 3d 95 09 ed bd 47 7f 92 bd 5d 96 62 3d
       0.062224712 -0.11574093 -0.071531825 0.05531918
000180 de 76 0b bd 9e 59 a6 be 27 06 60 be b4 90 9f bc
       -0.034048907 -0.32490247 -0.21877347 -0.01947818
000190 8f 47 f8 3c 7e 60 5a 3d 51 e7 84 3c 9b 8e ab 3d
       0.03030756 0.05331468 0.016223582 0.08376809
0001a0 cf a4 7d 3d 15 79 88 3d 64 d4 40 bc 61 7f bd bc
       0.06192475 0.066637196 -0.011769388 -0.023132028
0001b0 f8 5f a5 bc 73 51 bd 3d fb 5f eb 3e a2 93 31 3d
       -0.020187363 0.09244051 0.45971665 0.043353684
0001c0 42 0a bd be a2 b3 5a bd cf fc 17 3e 04 b0 fe 3c
       -0.3692189 -0.053393967 0.14842533 0.03108979
0001d0 b1 0e 0c 3d 98 6f 80 bd dd 48 5f 3e 13 26 d0 3d
       0.0341937 -0.06271285 0.21805139 0.10163512
0001e0 cf c7 74 3e 21 fb f9 3d 6a 58 7c bd 52 f4 4a be
       0.23904346 0.12206102 -0.061607756 -0.19819763
0001f0 70 88 c8 be 7c 65 c1 bd a2 78 b9 be 98 d7 aa bd
       -0.39166594 -0.09443185 -0.36224848 -0.083419025
000200 0d e8 25 be f2 ec 55 be f6 b3 1e be 1c c6 47 bc
       -0.16201802 -0.20891169 -0.15498337 -0.012193229
000210 a1 17 b4 bd 93 86 27 3e 86 fa 0e 3e 3b d3 18 be
       -0.08793569 0.1635993 0.13962755 -0.14924328
000220 98 4d 45 3e 0e 2e 5d 3e 13 ec a9 bd ba 7e 86 be
       0.19267881 0.215996 -0.08296981 -0.2626856
000230 2f 3c da 3d ce 6c ba 3e 13 4d 0a be 07 51 68 be
       0.1065601 0.36411136 -0.13505964 -0.2268716
000240 6b 82 1c be 40 7e 17 3c 8c 09 8d 3e 53 0f ac bc
       -0.15284126 0.009246409 0.27546346 -0.0210034
000250 ec 09 fc 3d 09 6d df 3e 8b 17 13 be b1 f0 9b 3e
       0.1230658 0.43637875 -0.1436445 0.3045707
000260 3e 2a 18 3e ae 10 77 be dc ff 1d 3e ea 57 b7 3d
       0.14859864 -0.24127457 0.15429634 0.08952315
000270 a5 63 30 3e 2f ef d0 3d 20 2c a7 bd bc b3 ed bd
       0.17225511 0.10201871 -0.08162713 -0.11606547
000280 c1 73 ba 3d 2d c2 e6 be d5 62 2b be 06 91 6b 3c
       0.091041096 -0.4507002 -0.1673692 0.014377838
000290 c1 88 01 3e 0b a7 9a 3d fa 21 f4 3d 1d 8f a3 3e
       0.12649824 0.07551392 0.11920543 0.31945124
0002a0 d5 20 18 be 0c 95 c9 bd 15 18 11 3e 73 a9 02 be
       -0.14856274 -0.098428816 0.14169343 -0.12759952
0002b0 a1 33 c5 bd 6c 25 74 3e ed e2 14 be 2d 51 e7 be
       -0.09628988 0.238424 -0.1453969 -0.4517912
0002c0 c2 10 40 3c 16 f2 da 3c 61 5e b9 3c 89 dd 5d be
       0.011722745 0.026726764 0.022628011 -0.2166654
0002d0 2a f6 ed be 92 fa cc 3e 53 60 b8 3e 5e 04 08 bf
       -0.4647687 0.4003492 0.3601099 -0.53131664
0002e0 8f e8 c2 3d 39 99 8a 3c d2 b0 27 bd 74 26 76 3e
       0.09517013 0.016918765 -0.040940113 0.24038106
0002f0 12 9c 0f 3f 15 c6 5f 3e 65 c4 43 3e 95 c3 13 be
       0.5609752 0.21852906 0.19117887 -0.14430077
000300 6d 12 e8 be 45 21 a9 be b1 2f 5a be 80 bd 01 3e
       -0.45326558 -0.33033195 -0.21307255 0.12669945
000310 8d 26 14 3e d5 3e c5 3e 2e 53 02 3e f4 78 2a 3e
       0.14467831 0.385245 0.12727043 0.16647702
000320 44 44 98 3d 7c 60 c2 3d 29 2c 2c be 26 ff 99 3d
       0.07434896 0.09491059 -0.16813721 0.07519369
000330 47 56 0b 3e 4c b2 19 3d 1c ad 84 3d 1c cf fa 3d
       0.13607131 0.037523553 0.064783305 0.12246534
000340 97 97 39 3d ff 5b 09 3e 4e 51 1a 3e a7 81 24 bf
       0.045310583 0.13414 0.15070078 -0.64260334
000350 1a 09 0d bf 4d d6 fa bd a1 48 c7 bc 58 79 35 bd
       -0.5509201 -0.12247906 -0.024326624 -0.044305176
000360 3d 66 80 bd 98 4d d4 bd 36 7c de 3c 4d 29 00 bf
       -0.062695004 -0.10366362 0.027158838 -0.5006302
000370 45 ce 88 be 41 ab 12 bd 04 96 56 bd 32 64 07 3e
       -0.2671987 -0.03580785 -0.05238916 0.13221815
000380 95 74 80 3c 8d 40 7c be d6 f8 0d be 50 55 ff be
       0.01568059 -0.24633999 -0.13864455 -0.49869776
000390 19 42 1a bf 1d b7 23 bd 48 61 73 bd 1a f8 a5 bd
       -0.60257107 -0.039969552 -0.059418947 -0.08103962
0003a0 cf 9a 9e 3d 12 d6 83 ba 14 18 94 3d 33 06 b2 3a
       0.07744371 -0.0010058305 0.07231155 0.001358217
0003b0 2a 2b d8 3d a5 e9 15 3e bb aa a4 be 1e a0 2a bf
       0.10555108 0.1463991 -0.32161507 -0.6665057
0003c0 63 ca f6 be be a9 e4 bd 74 f7 aa be 71 07 e9 be
       -0.48201284 -0.11165188 -0.33391917 -0.4551349
0003d0 81 89 28 be ba 1c 10 3e 8f 8c 8f be c5 a8 a9 bd
       -0.16458704 0.14073458 -0.28036925 -0.08284143
0003e0 60 89 77 3e 98 4f 1a 3d 4d f8 3d 3e 06 70 f3 bd
       0.24173498 0.037673563 0.1855175 -0.11886601
0003f0 82 1e bd bc dc 11 38 be 32 11 87 be e0 5e 3f be
       -0.023085836 -0.17975563 -0.26380306 -0.18688536

conv2d_2/bias:0 f4 [64]
000000 01 63 5b be 30 c4 79 ba ea e4 49 bd d6 96 f4 bc
       -0.21424486 -0.00095278304 -0.049290575 -0.02985708
000010 d2 2d 88 be 94 de e0 3c fd ae 37 be 55 3a 9a be
       -0.26597458 0.027449884 -0.17937846 -0.3012263
000020 91 77 3f be a1 2d ab bd 07 26 09 3b d4 ac e4 bc
       -0.18697955 -0.083583124 0.0020927207 -0.027914442
000030 6f 64 03 be 4b 59 eb bd 88 40 64 be 14 0b be be
       -0.12831281 -0.11491641 -0.22290242 -0.37117827
000040 d0 b0 ac bd fd 72 43 be 0f 20 bd 3e 89 76 de bd
       -0.08432162 -0.19086833 0.3693852 -0.108624525
000050 b0 66 ce bd cb a7 ea bd f7 2a 26 be 1f 89 8e be
       -0.1007818 -0.11457785 -0.16227327 -0.2783899
000060 37 a2 51 be 6b 84 14 3e 28 10 c9 be 1c 9b e9 be
       -0.20472036 0.14503638 -0.3927014 -0.45626152
000070 08 0b 45 be a1 7b 89 be b8 ec 3d 3c c3 b2 78 3e
       -0.1924249 -0.26852134 0.011592083 0.24286942
000080 0b 41 89 bd f9 f7 d1 bd da a9 b5 be 86 a8 e7 3a
       -0.06701859 -0.10252375 -0.3548115 0.0017674125
000090 0a 5e 68 bd 3a 44 6c 3e 3d 30 1b be e4 4d ed 3d
       -0.056730308 0.23072901 -0.1515512 0.11587122
0000a0 11 d2 a3 be cd f8 23 3d 7d 1b 8c bd 69 ad ab bd
       -0.31996205 0.040032197 -0.068411805 -0.08382685
0000b0 18 f8 19 3d 35 50 04 be 7f 6a 69 3c 53 ad 41 be
       0.037590116 -0.12921222 0.014246582 -0.18913774
0000c0 53 96 86 be 28 17 b9 be b2 31 41 bd cd c4 64 be
       -0.26286563 -0.3615048 -0.047166534 -0.22340699
0000d0 e1 81 c9 bd 11 bd 55 bd 92 c3 09 be ef cd c5 3d
       -0.098392256 -0.05218226 -0.1345351 0.09658419
0000e0 1a 0c fd b8 a5 9d 03 be 78 37 1c be e0 5b d3 bc
       -0.00012066234 -0.12853105 -0.15255535 -0.025800645
0000f0 cc 71 bc bd 59 3e 1f be 9c f6 3f 3c ae 10 37 be
       -0.092013925 -0.15551127 0.011716511 -0.17877457

conv2d_1/kernel:0 f4 [64, 32, 3, 3]
000000 f7 aa 20 3d 44 04 9d 3d 12 6b 2d 3e f6 f5 96 bd
       0.039225545 0.07666829 0.16935375 -0.07371132
000010 9d 26 44 3c 5c f8 bc 3e d6 d7 83 be 37 f3 60 be
       0.011972097 0.36908233 -0.25750607 -0.21967779
000020 92 98 19 bc 51 87 ab 3c 6a 74 c9 bc bf 7f 93 3e
       -0.0093747545 0.020938547 -0.024591643 0.288084
000030 3a 5e 67 be ca 17 56 be b8 dd 07 3f 5f 95 74 be
       -0.22594538 -0.20907512 0.5307269 -0.23885106
000040 77 77 ac 3e f2 95 25 3f c7 55 2a 3e 51 d2 c0 3d
       0.33684894 0.64681923 0.16634284 0.09415115
000050 b3 63 65 3e 81 c4 9f 3c a3 a2 ef bd 18 b5 6e 3d
       0.22401313 0.01950288 -0.11700942 0.058278173
000060 e8 dd 03 bf de 6e 7a be 7e fd 7a 3e 79 96 6f 3e
       -0.5151048 -0.24456355 0.24510762 0.23397245
000070 bc 49 0b bd 92 41 92 3d ef df 8b bd 38 e0 e2 bd
       -0.034005865 0.07141413 -0.06829821 -0.110779226
000080 18 cb 42 3e 53 d9 53 3c 34 9a 17 3d 81 b2 84 be
       0.19022787 0.012930232 0.037012294 -0.25917438
000090 c8 15 d0 be 72 4f d3 3d 0c dd 85 3d fe dd 1d 3e
       -0.40641618 0.10317887 0.06536302 0.15416715
0000a0 5e 71 2f be 72 d2 da 3d 11 c5 fb be 00 11 1c 3c
       -0.1713309 0.106846705 -0.49173787 0.0095255375
0000b0 64 ea 88 3e ce 3c 89 be ae 68 5d bd 91 e7 0d 3d
       0.26741326 -0.26804203 -0.05405491 0.034644667
0000c0 14 a3 c0 bc 58 45 b8 3d 73 45 f5 3d 5e b4 38 3d
       -0.023515262 0.08997601 0.11976137 0.045093887
0000d0 35 62 09 bf 99 10 27 bb 23 57 d4 be 3a 81 80 be
       -0.5366548 -0.002549207 -0.4147273 -0.25098592
0000e0 7f 07 eb bc 67 56 94 bd 42 c9 c3 3e 57 b5 d0 3e
       -0.028690098 -0.072430424 0.38239485 0.4076335
0000f0 f9 17 00 3e 10 d8 28 3e 66 fc d6 be 27 87 b1 be
       0.12509145 0.16488671 -0.4198944 -0.34673426
000100 27 17 42 3d fa 0b a0 3e ad 01 c0 be ae 27 3a be
       0.04738536 0.31259137 -0.3750128 -0.18179199
000110 c7 4f 1b 3e 98 44 9f be d2 12 32 be 4c 0a bb 3e
       0.15167151 -0.3110702 -0.17389992 0.36531293
000120 a8 cc 8f be 67 e2 6e 3d a0 e6 6d 3e ea 47 81 bd
       -0.28085828 0.058321383 0.23232508 -0.06312545
000130 fc a6 48 3e 7f 73 33 3e 49 e6 ae 3c 6c 4f 9e 3e
       0.1959495 0.17524527 0.021350043 0.3091997
000140 4a 05 cc 3e dd 10 a8 be e8 93 ac bd 4a 61 60 be
       0.39847785 -0.32825366 -0.084266484 -0.21912113
000150 7b fc 9d be bb c5 d8 3e a3 eb ec 3d 62 93 93 3d
       -0.3085669 0.42338356 0.11568382 0.072058454
000160 37 9e 65 3e 6b b1 39 be 47 af a0 3b d9 73 26 3e
       0.22423635 -0.18134086 0.004903707 0.1625513
000170 84 3a be 3e 17 c0 07 be d3 fd f0 bd f6 0e 49 3e
       0.3715402 -0.1325687 -0.11767163 0.19634613
000180 fe 61 d4 be 74 9f 3b 3e 8b e3 b3 3e 60 ba 88 be
       -0.41481012 0.18322545 0.3513454 -0.26704693
000190 e4 eb fe bd a2 a7 95 be 2c cc 21 bc a9 8c 6f 3d
       -0.12447336 -0.29229456 -0.0098753385 0.058483753
0001a0 a6 c7 5a be 53 ba 32 3e b7 65 37 3e cc 6f 63 3d
       -0.21365222 0.1745389 0.17909895 0.05552654
0001b0 87 41 93 3e 66 83 4b 3e b6 c9 18 3d 02 af a3 3c
       0.2876093 0.19874343 0.03730174 0.019980911
0001c0 37 ea 0f bd ab f9 72 bc 2a 9f 2e be b0 2d bb be
       -0.035135474 -0.014830033 -0.17052904 -0.36558294
0001d0 05 16 5b bc ae 2c 37 3d 8a 79 81 bd d0 6a 06 be
       -0.013371949 0.044720344 -0.0632201 -0.13126683
0001e0 40 d3 89 be 40 c6 f8 bd c5 36 94 bd 7c 3d da be
       -0.26918983 -0.12147188 -0.07237009 -0.42625034
0001f0 99 c9 48 be 31 32 1b bd d0 cd f7 3d 59 f2 41 be
       -0.19608153 -0.037889663 0.120998025 -0.18940105
000200 fc 04 b8 3d 7e 5d 3c be f7 dc f2 bd 13 ac 1f 3e
       0.08985326 -0.1839504 -0.11858552 0.15592985
000210 d1 f9 42 bb 56 5c f0 3d 71 de d6 3e ba b6 16 be
       -0.0029750953 0.11736362 0.41966584 -0.14718142
000220 26 3c 8b 3d 83 0b e7 3d 4a 81 ae bc 2b f9 80 3d
       0.06798582 0.112814926 -0.021301884 0.06297525
000230 f1 03 c8 3e 23 15 c7 3d 9c be bb bd 19 ec 93 bd
       0.39065507 0.097208284 -0.09167215 -0.072227664
000240 0f ef d0 3d 5a a8 b5 bd da 07 be 3e 12 0c 66 be
       0.10201847 -0.08870001 0.37115365 -0.22465542
000250 14 b6 18 be ff 4f ad 3e 3a bb b9 bd 01 2d 50 3d
       -0.14913207 0.33850095 -0.09068914 0.05082417
000260 c3 53 c9 3e 28 f4 0c be e1 e8 a8 bd b8 a9 5a be
       0.39321718 -0.13765013 -0.08247543 -0.21353805
000270 f2 fc b2 3c b5 f5 43 3d 8a 8b 0e 3d db 26 72 3d
       0.02184913 0.047841746 0.034801044 0.059119087
000280 60 e8 83 3e a5 4f c5 be 45 16 8f bd 19 7d e0 bd
       0.25763226 -0.38537326 -0.069866695 -0.109613605
000290 5f 49 cd be c3 d5 8d be 49 de 9d be c1 d0 a6 be
       -0.4009504 -0.2770215 -0.30833653 -0.32581142
0002a0 53 3d 02 be 6f cc 73 3d 6d 8d e0 be 13 33 54 3b
       -0.12718706 0.059521135 -0.438579 0.0032379075
0002b0 e5 72 ed bb 57 ff a2 3e 33 fb ca be 79 cd ac 3c
       -0.0072463625 0.31835434 -0.39644775 0.02109407
0002c0 85 58 90 3e e4 25 86 be aa 77 2d 3e b8 2c d0 3c
       0.28192535 -0.26200783 0.1694018 0.025411949
0002d0 31 22 50 bc f5 7d a4 3d f3 47 59 bd 1e 83 ac be
       -0.012703464 0.08031837 -0.05304713 -0.33693784
0002e0 68 a7 50 bd b8 43 29 be 17 82 16 bf c7 e0 0b be
       -0.0509409 -0.16529739 -0.5879225 -0.13659965
0002f0 d8 a1 45 be df 98 55 be 38 92 ca 3d 12 67 a4 3e
       -0.1930002 -0.20859097 0.0989117 0.32109886
000300 67 57 05 be 6f 17 98 bd 64 a2 00 3e a7 02 e2 bd
       -0.13021623 -0.074263446 0.12561947 -0.11035662
000310 fa 90 0c 3e 65 90 82 3e 1b ae 71 bd e5 b7 41 3e
       0.13727179 0.2550079 -0.05900393 0.18917806
000320 ee 62 b3 3e 00 2f 4c 3b 84 4a 01 be 9d e2 8d 3d
       0.35036415 0.0031155944 -0.12626082 0.06927989
000330 55 7e 5c be bc b8 76 bc f1 65 11 3e 42 70 0e 3d
       -0.21532567 -0.015058693 0.14199044 0.034775026
000340 7f 91 1c be cf 7f c2 be 9d 2e 9d be b8 c8 fc be
       -0.15289877 -0.37988135 -0.30699626 -0.49371886
000350 3c 24 ef bd f7 e9 b8 be 5e b4 59 bf 64 7c c0 be
       -0.11676833 -0.36116 -0.85040843 -0.37594903
000360 4d 0c ff 3c 77 2a 81 3e 74 47 47 3e 87 32 e4 bd
       0.031133795 0.2522771 0.19460851 -0.1114245
000370 99 18 b6 bc a7 be c5 bd 23 92 01 bf 70 fd 8f be
       -0.022228526 -0.09655505 -0.5061361 -0.28123045
000380 ab 64 96 3e 41 1e 83 bd 76 0a e7 3d fd 54 65 3e
       0.2937368 -0.06402255 0.11281292 0.22395702
000390 47 a7 b9 be ff d7 8a bc c6 af 16 3e 30 21 d0 be
       -0.36260435 -0.016948698 0.1471549 -0.4065032
0003a0 14 bf 25 bf 87 84 24 bc ce ce 92 be 49 6d 82 3d
       -0.6474469 -0.010041363 -0.28673404 0.06368501
0003b0 1e 3c 40 3e 86 07 71 3d 2c 90 04 3e 68 2b d4 3c
       0.18772933 0.058845066 0.12945622 0.025899604
0003c0 66 2a ee 3c 9d 17 e6 be d7 d2 83 be 41 cd ba be
       0.029072952 -0.4493989 -0.25746796 -0.3648472
0003d0 65 1e 18 3c ab 76 d1 bd 78 27 ec be 5e 52 15 3e
       0.00928459 -0.10227712 -0.46123862 0.14582202
0003e0 4d 0d 29 3d e5 60 fd 3c 6c 1d c6 3d 83 75 95 3d
       0.04127245 0.030929992 0.096735805 0.07297804
0003f0 d6 2f d8 3c e2 93 6e bc 8f 7a 91 3c 16 8b 32 bd
       0.026389997 -0.014561625 0.017758636 -0.043589674

conv2d_1/bias:0 f4 [64]
000000 10 33 fa bd 65 47 11 bd 75 a1 ec bd f5 29 20 be
       -0.12216771 -0.035468478 -0.11554233 -0.15641005
000010 c7 fc 43 be 2e 81 6c 3e d8 f6 94 bd 75 90 33 be
       -0.19139396 0.23096153 -0.07273644 -0.17535575
000020 6f e2 27 be 6c c3 b9 bc 49 a9 3f be 22 31 82 bd
       -0.16394971 -0.022676192 -0.18716921 -0.063570276
000030 d0 df 11 be 4b 4b 53 3d 5b 19 00 be 9f 4d 1e be
       -0.14245534 0.051585477 -0.12509672 -0.15459298
000040 9b 8d 32 be b6 9c 07 be 30 ac d6 3b 68 eb 65 be
       -0.1743683 -0.13243374 0.006551288 -0.22453082
000050 16 62 73 be 8d ec 68 be 44 73 2d bd 90 cc 31 be
       -0.23767886 -0.22746487 -0.042346254 -0.1736319
000060 4c bc 0c be c2 3a 02 be 23 b4 ca bd ab 8b 18 be
       -0.13743705 -0.12717727 -0.098976396 -0.14897029
000070 50 1c 0d bd 81 f5 92 3c 5d 6f eb bd 31 f5 1c be
       -0.03445083 0.017939331 -0.1149585 -0.15327908
000080 f1 7a 0e be 11 21 d0 bd f1 d5 ff bd 20 a1 e6 3c
       -0.13914086 -0.10162557 -0.12491978 0.028153002
000090 dc a7 6c be 3f f2 8b bd a7 48 0f be b6 e8 0e be
       -0.23110908 -0.06833314 -0.13992558 -0.1395596
0000a0 6b 2e 4f be 96 bc 06 be 79 c0 97 bd 3c 32 c7 bd
       -0.20232551 -0.13157877 -0.07409758 -0.09726378
0000b0 0f 27 1d 3d 08 54 83 be 58 05 2a be 57 51 b6 bc
       0.038367327 -0.25650048 -0.16603601 -0.022255583
0000c0 04 91 47 be d1 69 d0 bd 65 90 40 bc d8 c8 ba 3d
       -0.19488913 -0.10176433 -0.011753176 0.09120339
0000d0 29 3a c5 bd 43 ad 2c be 57 c6 04 be 6f f6 c7 bd
       -0.09630234 -0.16862969 -0.12966286 -0.097638
0000e0 1b fb 1a be 33 58 25 3d e5 75 0b be 25 c6 56 bd
       -0.15134852 0.040367316 -0.13619192 -0.05243506
0000f0 1c ba d6 bd 58 01 c0 bd 1c 85 98 bb 64 b9 46 be
       -0.10484716 -0.09375256 -0.0046545397 -0.19406658

conv2d/kernel:0 f4 [32, 1, 3, 3]
000000 f4 c9 f1 3d 9c 94 03 3d c6 0b 11 be 20 73 d6 be
       0.118060976 0.032124147 -0.14164647 -0.41884708
000010 d3 e3 1d be 7e 6a 46 3d b6 f4 73 3e 26 d4 1b 3e
       -0.1541894 0.048441403 0.23823819 0.15217647
000020 1c 4b 98 3d e9 03 02 3d 50 6e 8a 3e 31 09 6f 3e
       0.07436201 0.03174201 0.27037287 0.2334335
000030 c1 cf 94 bd ba 5c ea be 16 5b 42 3d b4 50 c3 3e
       -0.072661884 -0.4577387 0.047450148 0.3814751
000040 a0 3b 16 be b8 24 c3 bd 0e 44 d0 be eb 2a 23 be
       -0.14671183 -0.09528488 -0.40676922 -0.1593434
000050 c5 ed c0 3e 60 2d 89 3e 65 52 44 bf 6e 44 15 be
       0.37681404 0.2679243 -0.76688224 -0.14576885
000060 96 f3 75 3e a6 24 74 3e a4 61 1b be df 6b 15 be
       0.24018702 0.23842105 -0.15173966 -0.14591931
000070 a0 98 e3 3b 47 49 c7 3d df 1c bb be 1f 25 74 be
       0.0069456846 0.097307734 -0.36545464 -0.23842286
000080 04 ee ac 3e e3 6f 32 3e 84 2f 0a bd da 04 f9 bd
       0.33775342 0.17425494 -0.03373672 -0.121591285
000090 25 9d 84 3d 91 ae 82 be 4b 9f a1 be af de 18 3e
       0.064752854 -0.2552381 -0.31566843 0.14928697
0000a0 a8 cc 83 3d 66 9d 37 be d9 2f e7 3d cf c4 28 3d
       0.064355195 -0.17931136 0.11288423 0.041203316
0000b0 64 cf 68 3e ee 91 02 3e bd 18 44 be f0 42 3f 3d
       0.22735363 0.1275098 -0.19150062 0.046694696
0000c0 c1 c4 27 bf 09 a5 3b 3e 6b ff 61 3e 99 a1 28 be
       -0.655346 0.18324675 0.2207009 -0.16467895
0000d0 30 f6 f2 3e b9 4a 8f be b8 84 04 bc 91 7f d2 3d
       0.4745345 -0.27986696 -0.008088283 0.102782376
0000e0 e9 a8 08 3e ec ac 6f 3e f0 d4 3a be d0 f7 d4 be
       0.13345684 0.23405808 -0.18245292 -0.41595316
0000f0 28 0a 00 bd 85 bc 46 3e b3 0a 62 3e 09 f7 88 be
       -0.031259686 0.19407852 0.22074394 -0.26750973
000100 13 e1 37 3c 64 6d 61 3e 12 15 a1 3e f2 40 bb 3e
       0.0112230955 0.22014385 0.31461388 0.36572987
000110 bf f4 36 be c2 20 f6 bd 1d 03 c8 be 5e 7d 8d be
       -0.178668 -0.12017967 -0.39064875 -0.2763471
000120 45 62 80 bd 3e 54 71 be dc 36 00 be dc f1 fd 3c
       -0.062687434 -0.23567292 -0.12520927 0.030999117
000130 06 8a ab 3e 55 82 63 3e 2d fc 2c 3e 0b 36 c7 bd
       0.3350374 0.22217686 0.16893072 -0.09727105
000140 8c b1 86 be a6 0e f3 3c 84 e0 07 3e 9d f4 ce 3d
       -0.26307333 0.02967007 0.1326924 0.1010525
000150 b0 d2 16 3e 2b dc a5 3d a0 06 c6 be 7e f5 0e be
       0.14728808 0.08098634 -0.3867693 -0.13960835
000160 ad 97 fb 3b e1 20 a3 bd 0b 5b d1 3e e8 a5 b6 3e
       0.0076779933 -0.079652555 0.40889773 0.3567345
000170 09 d2 dc 3d 46 e8 14 be 56 96 bc bd 78 c6 06 3e
       0.107822485 -0.1454173 -0.09208362 0.13161647
000180 07 e5 5d be 68 82 c5 be df 6c f1 be d2 8f d6 3d
       -0.21669398 -0.38576055 -0.47153375 0.1047665
000190 1e ac 21 bd 39 d9 39 3e 5d 9f 04 3e 5a 2f 41 3d
       -0.039470784 0.1814927 0.12951417 0.0471643
0001a0 f7 02 9f 3d 88 49 13 3d 11 53 2f 3e 6c 39 5c 3d
       0.077642374 0.035958797 0.17121531 0.0537657
0001b0 7e 0b 24 bd 77 48 1e bf cd d5 d7 be 04 d8 1f be
       -0.040050022 -0.6182932 -0.42155305 -0.15609747
0001c0 4a a9 eb be 15 e7 be 3e 5e 1f 44 be 38 61 fc 3c
       -0.46027595 0.37285677 -0.1915259 0.030808076
0001d0 06 19 bf 3e 72 11 7d 3d 16 4d 1e bf 1b d0 5c 3e
       0.3732378 0.061784215 -0.61836374 0.21563761
0001e0 b9 b0 d2 3e 0f e5 c6 be c0 ae 0b be c7 12 82 3e
       0.41150454 -0.38846633 -0.1364088 0.2540495
0001f0 72 7c 5d 3e b0 c5 00 bf 4d 1b 9e 3d 47 d3 8d 3d
       0.21629503 -0.5030165 0.07720051 0.069250636
000200 ab 29 e7 3d e2 0f 9e be 51 a6 5c be 67 4b 06 be
       0.112872444 -0.30871493 -0.2154782 -0.13114701
000210 51 25 d3 3e 5a ce 0a be 59 f7 14 bc 5f 3f 69 3e
       0.41239408 -0.1355528 -0.009092175 0.2277808
000220 5c a2 ee be dd 51 9b 3e 23 de d5 3d fa 6f 00 bf
       -0.46608245 0.30335894 0.1044276 -0.5017086
000230 e4 11 5c 3e c6 58 18 3e 16 a9 85 be 3e 95 f7 3d
       0.214912 0.14877614 -0.26105565 0.120890126
000240 37 43 66 3e 95 d7 c8 3e 8a 12 63 3e 21 2e df be
       0.22486578 0.39226976 0.22175041 -0.4358988
000250 d3 1e 5d bd 23 28 98 be b4 48 1a be 65 47 ce bd
       -0.053984474 -0.29718122 -0.15066797 -0.10072211
000260 ea 78 0a 3e 50 ba c9 bd 9b 3b 87 3e 3b 4c 6e be
       0.13522688 -0.098499894 0.26412663 -0.23271267
000270 e8 90 38 be 07 fb 2e 3e 52 96 6a bd 49 51 9d 3d
       -0.18024027 0.17087947 -0.057272263 0.076815195
000280 37 cd 9f 3d 54 d8 2c 3e d1 75 e7 be 6f b2 23 3e
       0.078028135 0.16879398 -0.45207074 0.15986036
000290 ef 3d b0 3e 16 c4 e1 be b3 c8 93 bd e4 6b a5 3e
       0.34422252 -0.44094914 -0.07216015 0.32308877
0002a0 9a cd dc 3b 63 fa 48 bf 0c b2 04 bf 1b e0 04 be
       0.006738377 -0.7850706 -0.5183418 -0.12976114
0002b0 80 33 a0 be 14 ba f1 3e e8 d3 9b 3e 99 e5 07 bf
       -0.3128929 0.4721228 0.3043511 -0.53084713
0002c0 a1 58 83 be 2b dc 62 bd 11 99 9c 3e 7b 64 50 be
       -0.25653556 -0.05538575 0.3058553 -0.2035083
0002d0 46 c9 6f 3e 64 10 97 bb 95 08 07 bf 40 a8 8c 3e
       0.23416623 -0.004610108 -0.5274747 0.27472115
0002e0 6a 55 cc 3d 96 ba e9 be 7b 98 50 3e 98 ec ea be
       0.09977229 -0.45650166 0.20370667 -0.45883632
0002f0 ce f4 ac be 19 de 1e 3e 40 bf 0f 3e 4e 50 ba 3d
       -0.3378052 0.15514411 0.140378 0.09097348
000300 65 a2 80 be cf 25 79 bc 53 b1 aa 3d f1 b6 fe 3d
       -0.25123897 -0.015206768 0.08334603 0.12437237
000310 05 aa ae bd b3 d2 71 be 80 db 49 bb ac 8d b2 be
       -0.085285224 -0.23615532 -0.0030800998 -0.34873712
000320 f7 5a 89 3c bd 88 ac 3d 12 39 07 3d 92 a8 b7 be
       0.016767008 0.08424518 0.03301341 -0.35870796
000330 35 35 9e bd bc 18 c4 3e 6d ba 35 3b b6 5a 98 3d
       -0.07724992 0.3830012 0.0027729527 0.07439177
000340 64 a9 e8 bb e3 43 c2 bd b5 04 6e bd 7c 2e 3b bf
       -0.007100271 -0.094856046 -0.058109958 -0.73117805
000350 a1 2c e6 be 6c 43 a5 be fe b2 ec be 17 34 84 be
       -0.44955924 -0.32278 -0.4623031 -0.2582099
000360 d0 e6 b3 be 1c dd 4f be 31 a5 70 be 61 25 6d be
       -0.35137033 -0.2029919 -0.23500516 -0.2315879
000370 07 e1 21 be 84 98 c6 bd d5 70 c3 3e 8d ca 95 3e
       -0.15808497 -0.09697059 0.38172022 0.29256096
000380 1a 00 09 3e 00 d8 0f bf 19 c8 89 3d 52 63 da 3e
       0.13378945 -0.56188965 0.06727619 0.426539
000390 5d 9b 8b 3e fa 83 e4 3d 52 fc af be ca 85 f7 3c
       0.2726697 0.11157985 -0.34372193 0.030215163
0003a0 51 b7 6a be a6 99 e4 bd f9 dd c2 bd 4f 02 80 be
       -0.22921492 -0.111621186 -0.09514994 -0.2500176
0003b0 00 07 bb bd eb 9d 07 bf ae 8c 2e 3e db c8 53 3e
       -0.091321945 -0.5297534 0.17045853 0.20682089
0003c0 e0 bf df be fd 23 f7 3e f6 f6 d8 bd 8a 04 5d be
       -0.43701077 0.48269644 -0.10593979 -0.21583763
0003d0 a4 4f 8f 3e 10 07 6f be 41 0c aa 3d ee 38 cc 3e
       0.27990448 -0.23342538 0.083031185 0.39887184
0003e0 66 40 39 be 13 44 16 3e 46 70 a7 3d 5f 8f 23 bf
       -0.18090972 0.14674406 0.08175711 -0.6389064
0003f0 e7 1d d0 ba 16 4c d9 bd c9 f6 c8 bc 11 69 7a bd
       -0.0015878052 -0.10610215 -0.024531739 -0.061135355

conv2d/bias:0 f4 [32]
000000 c3 3a af be 8f bb 8b be 9d 8f 61 bd a4 f5 1d be
       -0.3422452 -0.27291533 -0.0550686 -0.15425736
000010 4e ca 91 be 30 25 b7 bd fb 9b cb be a1 50 d9 bd
       -0.2847466 -0.0894264 -0.3976744 -0.10611082
000020 e4 f2 04 be a1 44 bd be a4 9a 8b bd eb 16 f7 be
       -0.1298328 -0.36966422 -0.06816605 -0.48259673
000030 eb 90 eb bc 12 a5 88 bd 38 b5 7d be a4 0c 1b be
       -0.028755626 -0.0667211 -0.2477616 -0.15141541
000040 58 89 0a be 5a 90 c6 be 8f 86 e7 3c dd 7f 82 bd
       -0.13528955 -0.38782007 0.028262405 -0.06372044
000050 ab f6 d9 3c 94 4e a3 be 42 d7 99 bd 3c e4 ba 3e
       0.026606878 -0.31895888 -0.0751176 0.36502254
000060 bf f4 e9 bd ad ed d7 bc 94 9d e1 bc bd 2f 67 bd
       -0.11423635 -0.02635845 -0.02754096 -0.05644201
000070 f8 8f e2 bb 9b 3f 45 be a5 8a 08 be e6 df f9 bd
       -0.006914135 -0.19262545 -0.13334139 -0.12200908
